checkpoints/Electricity_96_96_CycleNet_custom_ftM_sl96_pl96_cycle168_linear_seed2024/checkpoint.pth (torch, 254825 bytes, 3 tensors)

cycleQueue.data f4 [168, 321]
0.3834497 -0.12856954 -0.3838412 -0.32558513 -0.05665963 -0.46953365 0.019458275 -0.49218312
-0.23713681 -0.4011136 -0.33011135 -0.2974116 -0.4845537 -0.4232044 -0.44627512 -0.6340859
-0.45035344 -0.10638858 -0.33581775 -0.30065006 -0.4622312 -0.4517605 -0.3537244 -0.19179597
-0.22694294 0.79835516 -0.38516814 -0.20523201 -0.4467886 -0.113694854 -0.09188928 -0.55164564
-0.34564102 -0.39421168 -0.36186558 -0.33026612 -0.14695963 -0.51414895 -0.44572008 -0.49762818
-0.45905706 -0.48389474 -0.40868554 -0.18109581 -0.42757162 -0.55535233 -0.14826213 -0.25657883
-0.39089867 -0.3485661 0.049949877 -0.21383795 -0.39238706 -0.3532688 -0.31331983 -0.41031998
-0.24246053 -0.1103234 -0.22306682 -0.49153984 -0.41687 -0.42046976 -0.46299 -0.4615734
-0.40570906 -0.3458652 -0.42999452 -0.28522274 -0.40745348 -0.20853329 -0.32172135 -0.43570507
-0.52251464 -0.46661928 -0.37312183 -0.4862444 -0.58431536 -0.35065627 -0.39829874 -0.49006134
-0.6469551 1.218512 -0.43327132 0.15680094 0.32775623 -0.61272573 -0.2708371 -0.4243499
-0.47339845 -0.62200433 -0.47877303 -0.5011859 -0.76216346 -0.65001714 -0.6142885 -0.6422609
0.11129611 -0.41116711 -0.681749 -0.37960958 -0.24996158 -0.3330054 -0.46653444 -0.018531032
-0.02327877 1.1777625 1.1244339 0.4496487 -0.5707887 -0.4449396 -0.44338948 -0.40368825
-0.11992712 0.967177 -0.14057858 -0.022313686 -0.28166714 0.12613827 -0.045590267 -0.1413502
-0.15675093 0.10899761 0.3213272 -0.3716988 -0.39195624 0.07401071 -0.41995993 0.0019015501
0.62633455 1.1577166 0.9009619 0.23964462 0.886251 0.45362923 0.5212906 -0.2506666
-0.19573382 -0.31600296 -0.24655804 -0.31293875 -0.4590046 -0.30006322 -0.38934466 -0.13633381
-0.43557912 -0.5411982 -0.3507212 -0.45965433 -0.46834895 -0.66048765 -0.27433518 -0.5054339
-0.57079005 -0.41227368 -0.6972 -0.3438383 -0.46374887 -0.733823 -0.5830174 -0.53815585
-0.5007428 -0.35036853 -0.61888087 -0.55942374 -0.5866782 -0.56786203 -0.4523893 -0.6001391
-0.26454365 -0.5339633 -0.58048564 -0.81950843 -0.6631241 -0.54422057 -0.62753177 -0.53094095
-0.49773973 -0.8253749 -0.40633106 -0.55310214 -0.5052259 -0.73159486 -0.21897796 -0.6716312
-0.70643514 -0.5654085 -0.09867598 -0.3143503 -0.3573599 -0.4331398 -0.49979097 -0.46042517
-0.5814486 -0.36117363 -0.35242584 -0.46091694 -0.6830664 -0.5208669 -0.54769766 -0.43882942
-0.3736082 -0.49190515 -0.4943975 -0.62145615 -0.55971766 -0.37992057 -0.47962704 -0.2175688
-0.60309225 -0.47419754 -0.5048808 -0.42396492 -0.5552366 -0.57395273 -0.57253253 -0.5746706
-0.54395074 -0.5902423 -0.4232996 -0.5905808 -0.46679348 -0.50617135 -0.4971082 -0.6263266
-0.41585043 -0.44370654 -0.63493985 -0.5697505 -0.6847459 -0.5098337 -0.6534757 -0.34735858
-0.61949337 -0.5025883 -0.652622 -0.53379315 -0.5910871 -0.6214635 -0.5793593 -0.5950704
-0.51392317 -0.74248123 -0.78793055 -0.61203516 -0.6153992 -0.35461316 -0.10519654 -0.5339634
-0.44227907 -0.58496356 -0.4734603 -0.4606959 -0.5672098 -0.563867 -0.6512502 -0.32819498
00000000: 8553 c43e bca7 03be d586 c4be 18b3 a6be
00000010: ee13 68bd b766 f0be f666 9f3c 6dff fbbe
00000020: fed3 72be c35e cdbe 5b04 a9be 5546 98be
00000030: 6c17 f8be 3fae d8be 2c7e e4be 7453 22bf
00000040: ba94 e6be 41e2 d9bd 4ef0 abbe ceee 99be
00000050: 91a9 ecbe 274d e7be 5d1b b5be 2a66 44be
00000060: bb63 68be 0161 4c3f c234 c5be 5728 52be
00000070: 7ac1 e4be d9d8 e8bd 7230 bcbd a638 0dbf
00000080: dcf7 b0be 1dd6 c9be 7246 b9be a418 a9be
00000090: 967c 16be 449f 03bf 6c35 e4be 1fc9 febe
000000a0: 8709 ebbe 0dc1 f7be 3b3f d1be 2e71 39be
000000b0: abea dabe 922b 0ebf 07d2 17be 4d5e 83be
000000c0: df23 c8be 4177 b2be 3e98 4c3d 56f8 5abe
000000d0: f5e6 c8be a6df b4be 756b a0be 7615 d2be
000000e0: 9347 78be 3cf1 e1bd a16b 64be 1cab fbbe
000000f0: fc6f d5be d047 d7be 060d edbe 5953 ecbe
00000100: 19b9 cfbe 3e15 b1be 3e28 dcbe b708 92be
00000110: be9d d0be c089 55be a9b8 a4be bc14 dfbe
00000120: 85c3 05bf b9e8 eebe d309 bfbe 07f5 f8be
00000130: b195 15bf 3889 b3be d0ed cbbe 52e9 fabe
00000140: d99e 25bf 34f8 9b3f bdd5 ddbe 6d90 203e
00000150: aacf a73e 98db 1cbf 29ab 8abe 6444 d9be
00000160: 4861 f2be ad3b 1fbf bd21 f5be b84d 00bf
00000170: 251d 43bf 8667 26bf 0342 1dbf 366b 24bf
00000180: 37ef e33d 7f84 d2be 1a87 2ebf 305c c2be
00000190: eef5 7fbe af7f aabe 9add eebe 64ce 97bc
000001a0: 1eb3 bebc ecc0 963f 73ed 8f3f 5b38 e63e
000001b0: 351f 12bf 20cf e3be f203 e3be 3ab0 cebe
000001c0: 5a9c f5bd e998 773f d5f3 0fbe 31cb b6bc
000001d0: ad36 90be 642a 013e dcbc 3abd 1bbe 10be
000001e0: 5183 20be 243a df3d 0085 a43e 4e4f bebe
000001f0: 7dae c8be ed92 973d fd04 d7be 6f3d f93a
00000200: 7657 203f 0f30 943f 70a5 663f 6665 753e
00000210: 58e1 623f 1742 e83e 4d73 053f 5f57 80be
00000220: 726e 48be 24cb a1be b679 7cbe 8239 a0be
00000230: a702 ebbe e3a1 99be 2f58 c7be 179b 0bbe
00000240: 3a04 dfbe f78b 0abf bb91 b3be d057 ebbe
00000250: 6fcb efbe b815 29bf a975 8cbe 1e64 01bf
00000260: 4c1f 12bf 8915 d3be b37b 32bf 930b b0be
00000270: 7e70 edbe d3db 3bbf a140 15bf 95c4 09bf
00000280: ae30 00bf 8163 b3be fa6e 1ebf 6536 0fbf
00000290: 8b30 16bf 685f 11bf 929f e7be b7a2 19bf
000002a0: 4472 87be d2b1 08bf b59a 14bf 4ecb 51bf
000002b0: 80c2 29bf 0a52 0bbf eca5 20bf bfeb 07bf
000002c0: bed7 febe c54b 53bf a00a d0be 1a98 0dbf
000002d0: 7c56 01bf cd49 3bbf c23b 60be 06f0 2bbf
000002e0: efd8 34bf 9dbe 10bf a216 cabd 86f2 a0be
000002f0: e0f7 b6be 80c4 ddbe 9ae4 ffbe d9bc ebbe
00000300: d1d9 14bf c0eb b8be 2971 b4be 4efd ebbe
00000310: 71dd 2ebf 8857 05bf ea35 0cbf 40ae e0be
00000320: 9349 bfbe feda fbbe ab21 fdbe c017 1fbf
00000330: a849 0fbf f384 c2be ad91 f5be 5bca 5ebe
00000340: 4164 1abf 05ca f2be de3f 01bf ee11 d9be
00000350: fc23 0ebf 91ee 12bf 7e91 12bf 9d1d 13bf
00000360: 5b40 0bbf 1f1a 17bf baba d8be 4e30 17bf
00000370: 8eff eebe 7294 01bf f784 febe f156 20bf
00000380: 59ea d4be 812d e3be 6b8b 22bf 2bdb 11bf
00000390: 824b 2fbf 7684 02bf 2f4a 27bf fcd8 b1be
000003a0: 1e97 1ebf a0a9 00bf 3c12 27bf aba6 08bf
000003b0: 7c51 17bf 3b18 1fbf e450 14bf 8956 18bf
000003c0: 7890 03bf 4013 3ebf d1b5 49bf 56ae 1cbf
000003d0: cd8a 1dbf db8f b5be 4971 d7bd d3b1 08bf
000003e0: 6772 e2be 2cc0 15bf 6369 f2be 55e0 ebbe
000003f0: a934 11bf 9659 10bf 55b8 26bf 2c09 a8be

model.weight f4 [96, 96]
0.06250324 0.013934308 -0.002636301 0.00020592846 -0.0025305473 -0.0008170048 -0.0011959355 -0.0031686283
-0.0033223776 -0.0027799383 -0.0027417282 -0.004486236 0.003938439 0.0010658822 0.0009321798 0.0005025071
-0.0017082002 -0.002960434 -0.0030729938 -0.0035271288 -0.006679148 -0.008712881 -0.020367812 -0.08501085
0.12826873 0.018003926 0.0028126102 0.0005089798 0.0020661491 -0.002537722 -2.8808121e-05 -0.0017549109
-0.0036464962 -0.0029199948 0.00022261927 -0.0055133207 0.0041616997 -0.00023519913 0.0005220332 0.00096922123
-0.0018901811 -0.0011257477 -0.0017035586 -0.004030724 -0.004091537 -0.0075130835 -0.020519536 -0.093287565
0.14819077 0.023467269 0.0041927313 0.00055298844 0.0008648375 -0.0020852562 0.0017182102 -0.002613163
-0.00074653473 -0.0027019775 -0.00041301711 -0.006476047 0.0067702536 -0.0015418964 -0.0018858657 -0.0019000646
-0.00035785759 -0.0048955674 -0.0040517086 -0.010625554 -0.010716806 -0.017642992 -0.03851358 -0.12910558
0.221632 0.046000615 0.015156032 0.010949644 0.013369836 0.0056201825 0.012081662 -0.00087201933
0.0013532686 -3.9954608e-05 0.0021581952 -0.003072329 0.01760843 0.005174033 0.006018626 -0.00043814204
0.0072743567 -0.004860084 0.010111812 0.006472384 0.016001241 0.039498437 0.038902253 0.66609985
-0.044343296 0.12991695 0.014504439 0.0018360451 -0.00026267013 -0.0023368448 -0.00095919357 -0.0038287577
-0.004823456 -0.0050474782 -0.00429324 -0.0054297023 -3.4573238e-06 0.0038569032 0.001997017 0.001384651
-0.00076341874 -0.004040283 -0.004421928 -0.0058826115 -0.008100635 -0.012636589 -0.02178014 -0.07445164
0.0214919 0.12789415 0.017573182 0.0011296913 0.0013746913 -0.00046183946 -0.0027744689 -0.0013101952
-0.0036746415 -0.005036662 -0.0023225953 -0.002504478 -0.002151773 0.004423847 0.0006368479 0.0010480385
-0.00010849644 -0.002883185 -0.0020664954 -0.004628899 -0.007073513 -0.008925498 -0.02096115 -0.08051683
0.01813279 0.15656106 0.02408552 0.0041196733 0.0013491099 -0.0002536774 -6.0311897e-05 0.00075620937
-0.002153826 -0.0013953815 -0.002656797 -0.0036872523 -0.0013589297 0.006335817 -0.0019437091 -0.0024042283
-0.0016867042 -0.0033150262 -0.0071329237 -0.011119178 -0.01753418 -0.02204362 -0.044286292 -0.12225196
0.029779589 0.24423644 0.054960653 0.020960683 0.01949703 0.016832942 0.013723184 0.011477994
0.00041672375 0.0011965403 0.0017773622 -0.0007752649 0.00929337 0.019789936 0.008655212 0.005706031
0.003916952 0.003945318 0.0016045297 0.014445119 0.017358322 0.04275486 0.067715466 0.48722702
-0.05094067 0.016448906 0.13123831 0.01887328 0.0014237368 0.00079663284 -0.0018332169 -0.0022850444
-0.004800776 -0.0060078157 -0.006309348 -0.006538447 -0.0024671352 -0.0007480396 0.0045559034 0.001898477
0.00020440631 -0.0025794453 -0.0053398493 -0.0066516744 -0.008994301 -0.0118961735 -0.021838196 -0.06029938
0.0074528605 0.018206662 0.12769979 0.015496723 0.0019623656 -0.00046983123 -0.0005803469 -0.0036834856
-0.002770555 -0.0052587525 -0.0051869545 -0.0051524295 -0.00058446627 -0.0023108537 0.0042318706 0.000972
0.0002267359 -0.001017227 -0.0038359736 -0.004390984 -0.006910962 -0.010359054 -0.018764377 -0.064436406
0.0040346235 0.023001304 0.15619826 0.024493987 0.00468473 0.00044715588 0.0010534711 -0.0013751759
0.0005521899 -0.003369359 -0.0020079094 -0.005761973 -0.00056279823 -0.002080038 0.0052153366 -0.0025003562
00000000: b301 803d b94c 643c cbc5 2cbb 80ee 5739
00000010: 8ad7 25bb 442c 56ba f0c0 9cba c3a8 4fbb
00000020: 3fbc 59bb a02f 36bb 91ae 33bb 4601 93bb
00000030: 050e 813b 12b5 8b3a 875d 743a aeba 033a
00000040: b0e5 dfba d703 42bb 4864 49bb 6727 67bb
00000050: c1dc dabb 79c0 0ebc 66da a6bc 2b1a aebd
00000060: e158 033e f87c 933c c553 383b 0e6d 053a
00000070: 3b68 073b e94f 26bb f8a8 f1b7 0a05 e6ba
00000080: 0efa 6ebb 625d 3fbb e86e 6939 16a9 b4bb
00000090: de5e 883b c99f 76b9 0ed9 083a 5613 7e3a
000000a0: f4bf f7ba d38d 93ba f149 dfba 2a14 84bb
000000b0: 4d12 86bb 5030 f6bb 9618 a8bc 8d0d bfbd
000000c0: 52bf 173e 6e3e c03c 2e63 893b 6df6 103a
000000d0: 43b6 623a cba8 08bb 9135 e13a 9a41 2bbb
000000e0: 19b3 43ba a913 31bb 388a d8b9 0535 d4bb
000000f0: 01d9 dd3b 7519 caba 272f f7ba 970b f9ba
00000100: d59e bbb9 ff6a a0bb 32c4 84bb ce16 2ebc
00000110: 8b95 2fbc 0988 90bc 6ac0 1dbd 4134 04be
00000120: 80f3 623e 246b 3c3d 0151 783c 2366 333c
00000130: 280d 5b3c 8229 b83b 2af2 453c 3a98 64ba
00000140: 2960 b13a ef94 27b8 8270 0d3b 2159 49bb
00000150: 8e3f 903c ef8a a93b e537 c53b 6eb6 e5b9
00000160: ba5d ee3b 5741 9fbb 03ac 253c 4b16 d43b
00000170: 0915 833c 1dc9 213d f857 1f3d 8585 2a3f
00000180: 51a1 35bd f308 053e 07a4 6d3c 73a7 f03a
00000190: fdb6 89b9 c025 19bb 6472 7bba e5eb 7abb
000001a0: 150e 9ebb 5165 a5bb 4fae 8cbb a5eb b1bb
000001b0: 5f04 68b6 19c4 7c3b 63e0 023b 2e7d b53a
000001c0: 2a20 48ba 5a64 84bb d2e5 90bb ecc2 c0bb
000001d0: 87b8 04bc b209 4fbc 446c b2bc 1a7a 98bd
000001e0: c80f b03c aff6 023e a2f5 8f3c 2612 943a
000001f0: fc2e b43a 0b23 f2b9 ddd3 35bb dbba abba
00000200: 41d2 70bb 950a a5bb af36 18bb 2b22 24bb
00000210: c304 0dbb ebf5 903b 24f2 263a 565e 893a
00000220: 9588 e3b8 d1f3 3cbb 0a6e 07bb 05ae 97bb
00000230: eec8 e7bb 413c 12bc b8b6 abbc 02e6 a4bd
00000240: 388b 943c 8b51 203e ff4e c53c 53fe 863b
00000250: 9ed4 b03a 0100 85b9 68f7 7cb8 5a3c 463a
00000260: 3427 0dbb 3ce5 b6ba a81d 2ebb d4a5 71bb
00000270: 1d1e b2ba af9c cf3b 0ec4 feba 4290 1dbb
00000280: 6714 ddba e940 59bb 4dbb e9bb 362d 36bc
00000290: d7a3 8fbc d294 b4bc 8b65 35bd 3c5f fabd
000002a0: 53f4 f33c 1e19 7a3e 6c1e 613d bdb5 ab3c
000002b0: 3cb8 9f3c 3de5 893c 35d7 603c 320e 3c3c
000002c0: b77b da39 3bd5 9c3a 61f6 e83a 263b 4bba
000002d0: 3843 183c 811e a23c 97ce 0d3c a8f9 ba3b
000002e0: c659 803b ba47 813b 154f d23a 38ab 6c3c
000002f0: 0a33 8e3c b81f 2f3d 68ae 8a3d d275 f93e
00000300: 2aa7 50bd dbbf 863c 5663 063e 239c 9a3c
00000310: ae9c ba3a 20d5 503a 8d48 f0ba afc0 15bb
00000320: d44f 9dbb 36dd c4bb a6be cebb 7840 d6bb
00000330: a9af 21bb 1618 44ba b049 953b 51d6 f83a
00000340: e755 5639 e90b 29bb e7f9 aebb 4af6 d9bb
00000350: d55c 13bc 2be8 42bc 04e6 b2bc 7cfc 76bd
00000360: 2037 f43b 2326 953c bcc3 023e f8e5 7d3c
00000370: 089b 003b ae53 f6b9 6c22 18ba a266 71bb
00000380: 3392 35bb 9d51 acbb 54f7 a9bb b6d5 a8bb
00000390: de36 19ba b171 17bb 81ab 8a3b d1cd 7e3a
000003a0: f4bf 6d39 7954 85ba f564 7bbb 3ee2 8fbb
000003b0: 5a75 e2bb 06b9 29bc c0b7 99bc 3cf7 83bd
000003c0: e034 843b 3b6d bc3c 70f2 1f3e 9da7 c83c
000003d0: 5d82 993b 3f70 ea39 a014 8a3a 3f3f b4ba
000003e0: d6c0 103a 77d0 5cbb 2197 03bb efce bcbb
000003f0: c088 13ba 3f51 08bb 6ae5 aa3b 04dd 23bb

model.bias f4 [96]
-0.00029268145 -0.0027566075 -0.0029024777 -0.0031182657 -0.0034394572 -0.003650585 -0.0038218475 -0.0039709033
-0.004362794 -0.0041186544 -0.00444631 -0.0045091575 -0.004537162 -0.004475192 -0.005114329 -0.0047585536
-0.0050249575 -0.0049521592 -0.0051503736 -0.0056429743 -0.0054768035 -0.0052305344 -0.00492122 -0.0055935825
-0.006185483 -0.007260342 -0.007391941 -0.0074406243 -0.007958588 -0.008221805 -0.008456889 -0.007849385
-0.008221543 -0.007787457 -0.008191306 -0.008384461 -0.0094134025 -0.00919155 -0.009569787 -0.009338149
-0.009348555 -0.00950739 -0.009417171 -0.008701106 -0.007667153 -0.006730593 -0.006825879 -0.0067956815
-0.007543614 -0.0077407914 -0.0081791375 -0.008088097 -0.00801501 -0.008500687 -0.008666882 -0.008551345
-0.008594616 -0.00836827 -0.008431627 -0.009298924 -0.00983899 -0.009539834 -0.009269012 -0.0088023245
-0.008365255 -0.008821552 -0.00860849 -0.008602315 -0.007531422 -0.006888296 -0.007208869 -0.007550313
-0.008120627 -0.0085012335 -0.008761441 -0.008525938 -0.009204363 -0.009413287 -0.009613498 -0.010135506
-0.010695107 -0.010914792 -0.011423535 -0.011434053 -0.01193771 -0.011632573 -0.011284022 -0.0111167375
-0.010727839 -0.011043127 -0.010665426 -0.010855004 -0.010781977 -0.010751297 -0.010795965 -0.011414076
00000000: 0a73 99b9 33a8 34bb 7f37 3ebb d15b 4cbb
00000010: 8468 61bb a73e 6fbb f677 7abb 5a1e 82bb
00000020: c5f5 8ebb c7f5 86bb 5ab2 91bb 8ec1 93bb
00000030: 79ac 94bb a2a4 92bb 1a96 a7bb a4ed 9bbb
00000040: 66a8 a4bb b945 a2bb 77c4 a8bb b3e8 b8bb
00000050: c276 b3bb e764 abbb 2f42 a1bb 5f4a b7bb
00000060: 98af cabb 2ae8 edbb 1838 f2bb 7bd0 f3bb
00000070: bd64 02bc c0b4 06bc c38e 0abc b59a 00bc
00000080: a7b3 06bc ed2d ffbb d434 06bc fa5e 09bc
00000090: ac3a 1abc 2898 16bc 99ca 1cbc 09ff 18bc
000000a0: ae2a 19bc e2c4 1bbc 7a4a 1abc 158f 0ebc
000000b0: be3c fbbb 4e8c dcbb a0ab dfbb 4fae debb
000000c0: 6c30 f7bb 77a6 fdbb ca01 06bc f083 04bc
000000d0: 6351 03bc 7746 0bbc 8aff 0dbc f11a 0cbc
000000e0: 6fd0 0cbc 111b 09bc cf24 0abc 845a 18bc
000000f0: b733 21bc f74c 1cbc 0edd 17bc a037 10bc
00000100: 6c0e 09bc 4588 10bc a00a 0dbc b9f0 0cbc
00000110: 26ca f6bb 37b7 e1bb 6038 ecbb 9e68 f7bb
00000120: 610c 05bc c248 0bbc 268c 0fbc 60b0 0bbc
00000130: e6cd 16bc 303a 1abc ef81 1dbc 650f 26bc
00000140: 883a 2fbc f5d3 32bc c729 3bbc e555 3bbc
00000150: 6396 43bc 8c96 3ebc 9ee0 38bc fa22 36bc
00000160: d1c3 2fbc 3bee 34bc 0abe 2ebc 30d9 31bc
00000170: e4a6 30bc 3526 30bc 8fe1 30bc 1b02 3bbc
