checkpoints/Solar_96_96_CycleNet_Solar_ftM_sl96_pl96_cycle144_linear_seed2024/checkpoint.pth (torch, 118057 bytes, 3 tensors)

cycleQueue.data f4 [144, 137]
000000 78 4b 75 3f ce 92 ed 3e 2c 32 f7 3e 74 1c e5 3e
       0.9581828 0.46401066 0.48280466 0.4474827
000010 0f c6 77 3f 5c 2c 0a 3f 22 40 14 3f af 24 fa 3e
       0.9678659 0.5397394 0.5791036 0.48856112
000020 3c 1d fb 3e d6 24 f9 3e f3 96 f4 3e b2 91 0e 3f
       0.49045742 0.48660916 0.47771415 0.55691063
000030 0e f3 f6 3e 1d 3c f8 3e a9 c2 01 3f b7 3b 69 3f
       0.4823231 0.48483363 0.5068765 0.9110674
000040 d9 7f f9 3e 5a 14 ff 3e 84 76 00 3f 79 75 00 3f
       0.48730353 0.49820215 0.5018084 0.5017925
000050 45 6f e7 3e a4 e3 f6 3e ce 75 65 3f 28 6e de 3e
       0.4520208 0.4822055 0.8963288 0.43443418
000060 36 c5 f0 3e 63 b2 ed 3e 8f ab f8 3e 6b 00 ef 3e
       0.4702546 0.4642516 0.4856839 0.46680006
000070 63 09 e9 3e 74 17 f1 3e f6 3b 66 3f 32 dd d9 3e
       0.45514974 0.47088206 0.89935243 0.4255157
000080 99 27 02 3f f2 1f f7 3e 86 cb f7 3e 47 2f fe 3e
       0.5084167 0.4826656 0.48397464 0.49645445
000090 3c 90 f2 3e c5 3c 05 3f 67 56 06 3f fc 4b f7 3e
       0.47375667 0.5204585 0.5247559 0.4830016
0000a0 3e 1d 01 3f 8f 50 fb 3e 5c 83 01 3f fa e5 f6 3e
       0.50435245 0.490849 0.50591063 0.48222333
0000b0 31 c8 70 3f 79 44 6d 3f c1 fe f6 3e 41 4b 0d 3f
       0.9405547 0.92682606 0.48241237 0.55192953
0000c0 16 6a eb 3e f9 ec 05 3f 5e 58 f8 3e c4 52 f6 3e
       0.45979375 0.52314717 0.4850492 0.4811002
0000d0 0d 8c df 3e 46 1a fa 3e 4b 8b 12 3f dd cd e2 3e
       0.43661538 0.4884817 0.57243794 0.44297686
0000e0 92 82 f9 3e a0 1e fa 3e 16 65 0b 3f 58 c1 fe 3e
       0.4873243 0.4885149 0.5445112 0.49756885
0000f0 75 a1 e4 3e d6 90 f6 3e 9d 5a ef 3e 14 cb 06 3f
       0.44654432 0.48157376 0.4674882 0.5265362
000100 b7 5e e9 3e 30 4f 05 3f bd 1b e0 3e 50 97 ef 3e
       0.45580074 0.52073956 0.43771163 0.4679513
000110 c0 3e 5c 3f 92 d6 fa 3e a2 c4 0f 3f 17 c0 01 3f
       0.8603325 0.4899183 0.5615941 0.5068373
000120 24 86 e9 3e 53 e5 60 3f 16 81 e3 3e a1 9a 00 3f
       0.45610154 0.8784992 0.44434422 0.50235945
000130 03 07 fe 3e 4e 66 ee 3e 87 4c fd 3e f2 a0 eb 3e
       0.49614725 0.46562427 0.49472448 0.4602123
000140 4e 03 0c 3f c0 d6 f8 3e 19 d4 13 be c8 07 f8 3e
       0.5469254 0.4860134 -0.14436378 0.48443437
000150 7d 47 f4 3e b0 4e f9 3e 09 0d f5 3e 28 29 03 3f
       0.4771079 0.48692846 0.47861508 0.51234674
000160 5a f7 f4 3e 18 42 02 3f e3 8b fe 3e b3 d8 07 3f
       0.47844964 0.508821 0.497161 0.5306503
000170 61 d9 f7 3e 12 af 10 3f 85 5e ff 3e e8 37 e1 3e
       0.48408034 0.56517136 0.498768 0.43987966
000180 b0 0c 71 3f 6c 37 02 3f c1 71 00 3f ee 30 f6 3e
       0.94159985 0.5086582 0.50173575 0.48084205
000190 d7 45 eb 3e 01 4c 04 3f 3f 0f f7 3e 8a 82 f7 3e
       0.4595172 0.5167847 0.4825382 0.4834178
0001a0 a2 cd 08 3f 18 f2 11 3f 73 a2 ed 3e 15 62 f3 3e
       0.5343877 0.5701003 0.46413 0.47535768
0001b0 b2 04 fc 3e ea ba db 3e d2 42 f5 3e de 79 fc 3e
       0.49222332 0.42916042 0.47902542 0.49311727
0001c0 f5 91 10 3f 84 d4 f8 3e 54 ce df 3e 51 0a 10 3f
       0.5647271 0.48599637 0.43712103 0.5626574
0001d0 2d 40 f8 3e 2f ed e6 3e d8 39 ed 3e d5 d3 f8 3e
       0.48486462 0.45102832 0.46333194 0.48599115
0001e0 1c 6a fa 3e 8d aa 60 3f 6d 0d 01 3f 57 14 fd 3e
       0.4890908 0.8776024 0.5041111 0.4942958
0001f0 9c 7f 00 3f 6f 34 ef 3e 29 31 eb 3e e1 d5 ec 3e
       0.50194716 0.4671969 0.45935944 0.46256927
000200 45 fa fa 3e 39 48 e5 3e a3 4e e4 3e 80 05 f3 3e
       0.49019065 0.44781664 0.44591245 0.47465134
000210 87 3d f1 3e b7 7a f0 3e 2f d1 ed 3e 1f d0 6c 3f
       0.47117254 0.46968624 0.46448657 0.9250507
000220 d9 4e 09 3f 40 f8 84 3f 78 d6 16 3f e5 f9 18 3f
       0.53635937 1.038826 0.58921003 0.5975631
000230 ed 86 0f 3f 15 9c 83 3f 65 43 25 3f 89 f2 31 3f
       0.56065255 1.0282007 0.6455596 0.69510704
000240 e1 8f 15 3f 90 00 19 3f 2f 85 19 3f 3b d9 17 3f
       0.58422667 0.59766483 0.5996885 0.5931584
000250 9a 97 2b 3f 6a de 16 3f 4f 58 19 3f 1f 67 1f 3f
       0.670282 0.58933127 0.59900373 0.62266725
000260 9d 3d 81 3f 0c 8c 18 3f 87 80 1c 3f dc 74 1b 3f
       1.0096928 0.59588695 0.6113362 0.6072519
000270 b0 35 1a 3f 7c c2 11 3f ee e4 18 3f 27 9c 72 3f
       0.6023817 0.56937385 0.5972432 0.9476952
000280 06 5d 0c 3f 25 70 16 3f 34 ba 13 3f ae d9 19 3f
       0.5482944 0.5876487 0.57706 0.6009778
000290 fd 5d 16 3f 4a 43 11 3f e1 bc 11 3f 0a 82 71 3f
       0.58737165 0.567433 0.5692883 0.9433905
0002a0 42 cf 0e 3f 56 00 20 3f 18 12 19 3f b7 94 17 3f
       0.55785 0.6250051 0.59793234 0.59211296
0002b0 5c e5 1f 3f 5a 73 14 3f f5 66 20 3f f0 c2 1f 3f
       0.6245935 0.5798851 0.626571 0.62406826
0002c0 88 5f 16 3f 34 42 20 3f b6 17 1b 3f 0f c8 1c 3f
       0.5873952 0.6260102 0.60583055 0.61242765
0002d0 cd fb 17 3f d0 c7 82 3f f4 7f 7a 3f ad cd 16 3f
       0.5936859 1.0217228 0.9785149 0.58907586
0002e0 97 bd 2a 3f 7e f6 13 3f 06 4c 20 3f 05 66 1a 3f
       0.6669554 0.5779799 0.62616 0.6031192
0002f0 a1 a7 17 3f 5d 22 12 3f f8 13 1c 3f 40 41 30 3f
       0.59240156 0.57083684 0.6096797 0.68849564
000300 9d 46 11 3f e4 bc 19 3f 60 b3 18 3f 34 78 29 3f
       0.5674837 0.6005385 0.59648705 0.6619904
000310 33 bd 18 3f 13 46 0e 3f 0e e0 17 3f 7b 45 12 3f
       0.59663695 0.55575675 0.59326255 0.5713727
000320 b8 8b 23 3f e5 3f 13 3f a4 bc 20 3f 33 e4 0d 3f
       0.6388507 0.5751937 0.6278784 0.5542633
000330 03 0c 18 3f 39 b6 72 3f ad 1a 1d 3f 34 14 2d 3f
       0.5939333 0.948093 0.6136883 0.6760895
000340 c7 2a 1e 3f a0 c7 13 3f 85 03 74 3f 93 14 0f 3f
       0.61784023 0.5772648 0.9531787 0.5589077
000350 1a 96 1e 3f a2 f6 17 3f 92 ff 13 3f e4 f3 1b 3f
       0.61947787 0.59360707 0.57811844 0.6091902
000360 e2 3f 12 3f e8 09 29 3f a5 2d 18 3f 43 53 24 bd
       0.5712873 0.6603074 0.5944465 -0.040118467
000370 90 58 18 3f 75 e0 13 3f 68 23 1a 3f 59 4c 17 3f
       0.59510136 0.5776437 0.60210276 0.5910087
000380 4c 49 20 3f 81 94 19 3f 3f 1e 20 3f 11 f6 1a 3f
       0.6261184 0.59992224 0.6254615 0.6053172
000390 f9 5e 25 3f 00 4b 1a 3f 83 cf 2d 3f 48 6e 17 3f
       0.6459804 0.6027069 0.6789476 0.5915265
0003a0 6e 4d 0f 3f dd 4c 7d 3f a1 70 20 3f da 61 1b 3f
       0.55977523 0.9894541 0.6267186 0.60696185
0003b0 97 03 1a 3f 71 5c 10 3f c8 11 21 3f 57 db 17 3f
       0.6016173 0.56391054 0.6291776 0.5931906
0003c0 1d 6a 19 3f 9f 3c 22 3f 44 3e 2f 3f bf 0d 12 3f
       0.5992754 0.6337375 0.68454385 0.57052225
0003d0 b0 d7 1a 3f bc ee 1b 3f e4 4c 0b 3f b0 82 18 3f
       0.60485363 0.60911155 0.544142 0.59574413
0003e0 08 e3 1b 3f 3f f7 2a 3f 51 dc 19 3f e3 db 0d 3f
       0.608933 0.6678352 0.601018 0.55413646
0003f0 d2 75 28 3f 19 f3 18 3f 08 16 14 3f d6 63 15 3f
       0.6580478 0.5974594 0.57846117 0.5835546

model.weight f4 [96, 96]
000000 9e b1 bb 3b 7a 48 54 ba b8 79 25 ba c9 af 3f 3a
       0.0057279607 -0.0008097958 -0.0006312388 0.0007312266
000010 97 a4 ad b9 7c a0 20 39 70 08 2d 3a 5b c0 d2 b9
       -0.0003311976 0.00015318574 0.00066006836 -0.00040197637
000020 aa 88 83 3a 60 a4 ad b9 21 56 7d 3a a7 69 ea b8
       0.0010035236 -0.000331196 0.0009664018 -0.00011177669
000030 c5 5b a8 39 66 7b 8b 38 5e 44 1a 39 97 17 47 b8
       0.0003211183 6.651021e-05 0.00014712053 -4.7467267e-05
000040 1e 53 f9 b9 b3 ab 0f b9 b0 71 02 ba c3 00 ca b8
       -0.00047554908 -0.00013701506 -0.0004976047 -9.6322525e-05
000050 88 cd 1a ba ca 36 58 ba 01 79 6b ba f5 da 80 ba
       -0.00059052603 -0.00082479103 -0.00089825696 -0.0009830879
000060 39 0a 6f b9 35 79 28 39 0e fc 37 b8 88 61 68 b8
       -0.00022796624 0.00016066882 -4.3865344e-05 -5.5403943e-05
000070 13 56 1d ba a4 2e 66 b8 09 69 d1 b9 00 3e 17 39
       -0.0006001901 -5.487971e-05 -0.00039941844 0.00014423579
000080 f0 8f 93 38 45 e0 6d 39 f1 4c 1d ba 5b e2 eb 39
       7.036317e-05 0.00022685628 -0.000600054 0.0004499134
000090 d6 4c ad b9 f5 fe 26 3a 06 2e af b9 cd 3a b8 39
       -0.0003305438 0.0006370389 -0.0003341289 0.00035139025
0000a0 c8 c1 10 3a 24 a9 06 3a c3 de 89 3a ad 96 1c 3a
       0.000552204 0.0005136898 0.0010518659 0.000597338
0000b0 63 13 11 ba 09 05 fe 3a ac d0 01 37 e6 49 38 3a
       -0.00055342 0.0019380163 7.737584e-06 0.00070300547
0000c0 36 98 1d b8 30 45 b4 39 64 cf 38 ba 60 33 3a 39
       -3.7573474e-05 0.00034383824 -0.00070499466 0.00017757481
0000d0 60 b1 e2 37 a1 c1 03 35 1e 79 55 39 e2 4d 4f b9
       2.7023896e-05 4.908307e-07 0.00020358383 -0.00019770072
0000e0 40 44 0b ba 83 71 d6 b8 f4 ea 69 b9 4b 41 dd b9
       -0.0005312599 -0.000102254584 -0.00022308138 -0.00042201052
0000f0 1f 89 0b b9 44 49 dd b6 96 c1 91 39 b6 2e 6c ba
       -0.00013307155 -6.5948425e-06 0.00027800788 -0.0009009646
000100 0b d4 d9 39 26 c8 e3 b9 14 4a 69 39 18 4d 19 bb
       0.0004154745 -0.00043445936 0.00022248208 -0.0023391899
000110 18 66 1f 3b dc ed b8 ba e2 53 09 ba b6 8c 9f 3a
       0.0024322327 -0.0014108974 -0.0005238635 0.0012172672
000120 94 1e e6 ba ce 60 0e bb 05 1d a4 39 c6 f6 a7 b9
       -0.001755672 -0.002172518 0.0003130214 -0.00032036583
000130 08 9d cc 3a d2 30 05 bb 19 48 46 3a 02 4c 2f bb
       0.0015610764 -0.0020323289 0.0007563844 -0.0026748185
000140 e6 44 76 b9 c9 8d 25 3b ed 06 87 ba 34 6f fe b9
       -0.00023486055 0.0025261512 -0.0010301747 -0.00048529508
000150 e2 fd 18 3b 29 8b 17 bb d8 fd bd 3a 7f ed 73 3b
       0.0023344685 -0.0023123717 0.0014495207 0.0037220416
000160 37 75 78 3a 51 3b 0a 3c d9 38 5c 3c c7 cc ff bb
       0.00094779156 0.008436994 0.013441288 -0.007806394
000170 e8 55 cb bb bb 0d 8c 3d c3 80 87 be dd 2e 93 3f
       -0.006205309 0.068385564 -0.26465425 1.1498677
000180 91 fc 58 3c ee b3 0f bb 5a 60 1a 3a 5a bb 57 b9
       0.01324381 -0.0021927315 0.0005888991 -0.00020573792
000190 96 7d 0c 3a 8f 3b eb b8 26 6e 53 3a a3 f4 2b 39
       0.000535929 -0.00011216767 0.00080654246 0.00016398965
0001a0 2e 84 33 3a 03 80 ff 39 d3 fb 5c 3a fb 73 8e 3a
       0.00068480044 0.00048732766 0.0008429859 0.0010868305
0001b0 8a 95 1b 3a e6 9d 88 3a ac 1e 5a 3a c2 c3 4f 3a
       0.0005935064 0.0010423034 0.00083206105 0.00079255935
0001c0 05 b4 e5 37 f1 22 21 39 1d 54 c3 b7 21 21 df 38
       2.7382755e-05 0.00015367173 -2.328498e-05 0.000106396394
0001d0 f0 dd 25 b9 17 6b 89 ba 88 51 9b ba 19 58 b3 ba
       -0.00015818304 -0.0010484186 -0.001184986 -0.0013682871
0001e0 0d 1e 05 ba e8 96 f7 39 2e da 19 3a a0 9d 76 39
       -0.0005078025 0.00047223945 0.0005868998 0.00023519108
0001f0 31 91 e4 b9 46 1e 06 ba 60 c7 e1 b9 9b c9 08 ba
       -0.00043595725 -0.00051162054 -0.0004306389 -0.000521803
000200 47 11 13 b9 3f e1 88 b9 17 95 a3 ba b0 37 56 ba
       -0.00014025449 -0.00026107763 -0.0012480345 -0.000817175
000210 78 ae 2b ba 10 93 75 b9 75 e5 d0 b9 1d 3b 03 ba
       -0.000654913 -0.00023419806 -0.0003984381 -0.0005006062
000220 a3 c7 ac 39 77 6c ee 39 db 80 7c 3a b2 fa 9e 3a
       0.00032955137 0.0004547571 0.0009632238 0.0012129156
000230 31 48 5a ba 0a 41 a8 3a 90 b6 ab 3a 37 d9 94 39
       -0.00083267974 0.0012836766 0.0013100673 0.00028390597
000240 37 df f2 39 c6 cf 7b b8 04 ab 36 ba 92 28 53 ba
       0.00046324145 -6.0036567e-05 -0.00069682323 -0.00080550567
000250 9c d1 2e 38 94 78 57 b9 5a de 04 39 90 33 81 b9
       4.1680047e-05 -0.00020548917 0.00012671333 -0.00024643214
000260 02 08 5a ba 3e 92 90 ba e7 8d 4a ba 7d 45 aa ba
       -0.00083172333 -0.0011029912 -0.00077268336 -0.001299068
000270 b1 0e 49 ba 96 62 b6 b9 9f 6b c3 38 ab 7a 97 ba
       -0.00076697307 -0.00034787197 9.3183706e-05 -0.0011556944
000280 4d c5 39 ba 75 5e 8f b9 b2 84 ab b9 06 24 24 bb
       -0.000708659 -0.0002734546 -0.00032714527 -0.0025045886
000290 48 ef f4 39 17 eb 73 3a f6 82 01 bb 55 32 89 3a
       0.00046717585 0.00093047455 -0.0019761897 0.0010467271
0002a0 ef 9a 63 ba 48 ca 90 bb 46 c7 03 bb f1 cc 30 b9
       -0.00086824497 -0.004418645 -0.002010779 -0.00016861015
0002b0 f1 11 b1 3a aa 08 95 ba 93 f7 a4 ba b0 9c 1a bb
       0.0013509375 -0.001137038 -0.001258599 -0.0023591928
0002c0 dc 04 46 bb 0e cb 2b 3b 95 31 8b 3a 8a c3 06 bb
       -0.0030215299 0.002621356 0.0010619635 -0.0020563328
0002d0 41 a9 fc 3a 92 df 64 ba 75 30 2e ba 09 14 bc 3b
       0.0019276516 -0.00087308243 -0.0006644794 0.005739693
0002e0 96 c3 a4 3b 78 47 3a 3c ab 6b bd 3c 6f f3 b7 3b
       0.0050281985 0.011369579 0.02312263 0.0056137363
0002f0 54 3c 87 bc 99 0a 94 3d 8a a7 6f be 67 18 87 3f
       -0.016508259 0.07228584 -0.23403755 1.0554322
000300 82 8d a8 3c 0d 25 77 bb b6 c1 af 39 80 ec 0c 3a
       0.020575289 -0.0037711293 0.00033522927 0.00053758174
000310 78 0b 74 ba 21 93 4b 3a c1 3b 48 38 82 e4 04 39
       -0.00093095703 0.00077657594 4.7739366e-05 0.00012673627
000320 cb aa 75 3a 2b 74 e7 b8 1f 45 b3 3a 37 bb 32 3a
       0.00093714584 -0.00011036576 0.0013677216 0.00068180583
000330 32 d7 c0 3a 0d 57 8e 3a 36 1f cd 3a 5c 69 a7 3a
       0.0014712571 0.0010859683 0.001564956 0.0012772488
000340 d4 62 22 3a b8 21 db 39 66 71 90 b8 26 96 c6 39
       0.0006194536 0.00041796057 -6.887577e-05 0.00037877372
000350 7f bc e3 b8 64 d0 36 ba be f8 b0 ba b9 4d d8 ba
       -0.000108593136 -0.00069738016 -0.0013501865 -0.0016502655
000360 fe 98 38 ba 66 27 15 39 a7 b5 9a 3a 9f 42 86 3a
       -0.00070418406 0.00014224424 0.0011803404 0.0010243243
000370 8c 2c 26 39 9c 0a 65 b9 b6 7d 22 ba 80 53 21 ba
       0.00015847589 -0.00021843094 -0.0006198542 -0.0006154105
000380 94 78 4b ba a2 80 e2 b9 ff e1 ce ba 77 dc 9f ba
       -0.0007761803 -0.00043201918 -0.0015783905 -0.0012196441
000390 e8 1b d9 ba e5 7c c9 b9 34 cc 82 ba 0b 94 b1 b9
       -0.0016564103 -0.0003843076 -0.000997907 -0.0003387037
0003a0 b1 df be b9 54 a1 06 3a 89 53 9a 3a c3 75 d5 3a
       -0.00036406287 0.0005135734 0.0011774163 0.0016285706
0003b0 b0 33 ab b8 a4 26 cd 3a 6a 91 13 3a 50 2b 1d 3b
       -8.163543e-05 0.0015651775 0.00056292734 0.0023982115
0003c0 ea b9 06 b9 ee 0c 87 3a 65 1e 79 ba 17 0c 0d ba
       -0.00012848494 0.0010303536 -0.00095031253 -0.00053805247
0003d0 12 5e 28 ba a7 b2 7a b8 09 11 6b 38 ca 96 1b b9
       -0.0006422709 -5.9771028e-05 5.604423e-05 -0.00014838125
0003e0 6e 13 15 ba 5e 4f a3 ba 16 26 ba ba 3e 2c c7 ba
       -0.0005686794 -0.0012459566 -0.0014202024 -0.001519568
0003f0 36 18 9a ba ca db 4b ba 5c 95 b6 38 a2 c2 77 ba
       -0.0011756483 -0.00077765866 8.7062566e-05 -0.0009451305

model.bias f4 [96]
000000 e6 56 a7 3a 7c 9b 32 3b ee c1 77 3b 82 52 94 3b
       0.0012766987 0.002725332 0.00378048 0.0045264373
000010 8d bd a5 3b ff 01 b6 3b aa 08 c4 3b d7 1c d4 3b
       0.0050579966 0.005554437 0.005982478 0.0064731645
000020 9b 0c e1 3b e3 4f f1 3b 20 c7 00 3c 10 92 07 3c
       0.0068679578 0.0073642596 0.007859975 0.00827457
000030 42 ed 0d 3c cc f6 15 3c 65 4f 1b 3c 06 c4 21 3c
       0.008662524 0.009153079 0.009479378 0.009873396
000040 f5 df 27 3c d3 b0 2d 3c ca 51 33 3c 0a de 38 3c
       0.010246267 0.01060124 0.010944793 0.011283407
000050 d8 1a 3e 3c 22 81 43 3c 9e e6 47 3c 38 85 4c 3c
       0.01160308 0.011932643 0.0122009795 0.012482934
000060 e0 5b 50 3c eb ad 53 3c 5e 61 57 3c 70 85 5c 3c
       0.012717217 0.012919883 0.013145773 0.013459548
000070 2b 44 61 3c d8 a4 65 3c 3b 2e 68 3c 3c 28 6a 3c
       0.013749163 0.014016353 0.014171178 0.014291819
000080 4f 2b 6a 3c 74 98 6a 3c 61 b1 6b 3c 0a 79 6c 3c
       0.014292552 0.014318574 0.014385552 0.014433155
000090 8f 0d 6c 3c f7 48 6c 3c 8b d3 6b 3c b6 d2 6a 3c
       0.0144075295 0.014421693 0.0143936975 0.014332464
0000a0 f4 32 6a 3c 09 11 69 3c 12 48 67 3c 33 5e 66 3c
       0.014294375 0.014225253 0.014116304 0.014060545
0000b0 0d be 64 3c 94 ee 62 3c b3 2e 61 3c 94 47 60 3c
       0.013961327 0.013850827 0.013744044 0.013688941
0000c0 91 b2 5f 3c ea 14 60 3c 2f b2 60 3c 7e 2b 60 3c
       0.013653413 0.013676861 0.013714357 0.013682244
0000d0 a4 02 61 3c 6a 50 62 3c b2 0d 64 3c 98 6b 66 3c
       0.01373354 0.0138131175 0.013919281 0.014063738
0000e0 26 25 68 3c 4e 77 69 3c c4 e0 6b 3c 36 0a 6e 3c
       0.014169013 0.014249636 0.01439685 0.014528802
0000f0 24 11 6f 3c 30 03 70 3c 8c e6 71 3c de 76 73 3c
       0.014591489 0.014649197 0.014764439 0.014859883
000100 36 a2 74 3c ef 6a 74 3c 86 e8 73 3c 17 34 74 3c
       0.014931252 0.014918073 0.014886981 0.014904997
000110 fc 78 75 3c 08 11 76 3c b7 88 76 3c f1 13 76 3c
       0.014982458 0.015018709 0.015047244 0.015019403
000120 6f 5b 75 3c 0b 71 73 3c 98 6f 70 3c 97 b2 6d 3c
       0.014975413 0.0148584945 0.0146750435 0.014507911
000130 41 b6 6b 3c fb f1 69 3c 47 b2 67 3c 82 e7 65 3c
       0.014386714 0.014278884 0.014141626 0.014032247
000140 28 a6 63 3c cc 55 61 3c 32 44 5f 3c 33 fb 5c 3c
       0.013894595 0.013753366 0.013627099 0.013487625
000150 b9 47 5b 3c e3 79 59 3c 38 0e 58 3c 49 ff 55 3c
       0.013383799 0.013273689 0.013186984 0.013061353
000160 3e 6b 54 3c 35 25 54 3c 68 fe 54 3c 9b 71 55 3c
       0.012965022 0.012948324 0.013000108 0.013027574
000170 16 ae 55 3c 26 ff 56 3c 7d 32 58 3c 52 02 59 3c
       0.013041994 0.013122356 0.013195631 0.013245182
