checkpoints/weather_96_96_CycleNet_custom_ftM_sl96_pl96_cycle144_linear_seed2024/checkpoint.pth (torch, 51241 bytes, 3 tensors)

cycleQueue.data f4 [144, 21]
0.3574603 -0.33356774 -0.32458168 -0.008634109 0.24955162 -0.43546805 -0.060646996 -0.6473377
-0.07685367 -0.077165976 0.07752865 0.07845793 -0.38407648 -0.38162962 -0.5040538 -0.73761773
0.3285074 0.33615407 0.30763045 -0.44826683 0.77239776 0.37779376 -0.27071142 -0.26305228
-0.0038292431 0.19090387 -0.37715265 -0.06887712 -0.59045076 -0.08633086 -0.08564132 0.020360436
0.15472656 -0.40457028 -0.34986305 -0.49556527 -0.82872814 0.41150746 0.41927174 0.3743193
-0.3736132 0.75712603 0.38880348 -0.2131621 -0.20656274 -0.0104459915 0.13397451 -0.32908165
-0.08447021 -0.54275805 -0.101683035 -0.10147586 -0.03471617 0.17932636 -0.35810733 -0.36671975
-0.46085674 -0.77418447 0.46373412 0.47270176 0.45941508 -0.3006102 0.74537414 0.40622905
-0.14765505 -0.14292483 -0.0130592 0.07615488 -0.27110103 -0.09611149 -0.48915404 -0.113493115
-0.11343993 -0.093677826 0.1975193 -0.28751427 -0.36848494 -0.5001718 -0.7722433 0.539751
0.54898655 0.49562505 -0.22993557 0.7223119 0.4185059 -0.07595375 -0.07240189 -0.023067592
0.011065813 -0.19466527 -0.12618263 -0.41283122 -0.14406879 -0.143204 -0.15902287 0.19520576
-0.2880888 -0.35739452 -0.49682283 -0.63837296 0.6469502 0.65769386 0.6060425 -0.15677413
0.70742834 0.42845547 -0.0071625533 -0.0051407334 -0.021118976 -0.047805395 -0.12207321 -0.1442417
-0.34140587 -0.16267021 -0.16164576 -0.22069725 0.28250036 -0.17745994 -0.39394462 -0.4660704
-0.6375132 0.70971864 0.7187161 0.65857077 -0.08046237 0.70160526 0.43731275 0.04789997
0.049143676 -0.063049905 -0.111109704 -0.0721418 -0.20870456 -0.28004214 -0.22565982 -0.22502176
-0.27135313 0.24040179 -0.09852975 -0.30628014 -0.48889923 -0.6076957 0.7536011 0.76618207
0.7288808 -0.0065467386 0.6767409 0.44994986 0.110149294 0.11047538 -0.06568368 -0.16404882
-0.017127775 -0.23143065 -0.2236648 -0.24930137 -0.24801368 -0.33056116 0.24357435 -0.02848497
-0.3354042 -0.17920241 -0.61562777 0.8685582 0.8829949 0.79886967 0.062002737 0.66816586
0.45342657 0.1786819 0.17779745 -0.092042 -0.23021246 0.051744588 -0.27646375 -0.15096368
-0.2939833 -0.29261327 -0.39297646 0.26263148 -0.016110279 -0.4880883 -0.468817 -0.7005457
0.90814835 0.92287916 0.77608 0.12555139 0.6441231 0.45042717 0.22676724 0.22540095
-0.121618025 -0.2765942 0.10294199 -0.29992136 -0.09785799 -0.31678227 -0.31554052 -0.438158
0.23411582 0.045747995 -0.35072553 -0.50787014 -0.7596527 0.9482422 0.9661233 0.9109684
0.18789649 0.6226299 0.45353913 0.28566647 0.2831889 -0.14833996 -0.33838034 0.16373554
-0.32860574 -0.032693826 -0.3457747 -0.3442882 -0.4922794 0.26311803 0.07631141 -0.32553458
-0.519643 -0.6736558 0.99107784 1.0095012 0.9430402 0.24779063 0.60404944 0.4535173
0.34761927 0.3441674 -0.15961325 -0.38944134 0.22831166 -0.33168745 0.02640776 -0.34874633
-0.3472809 -0.5500668 0.26603892 0.13775887 -0.37221104 -0.47645086 -0.6745243 1.0962069
1.1171316 0.99435043 0.3091433 0.5802101 0.45490295 0.40667868 0.40250972 -0.15030774
00000000: 0905 b73e 64c9 aabe 922f a6be 1476 0dbc
00000010: 768a 7f3e abf5 debe fc68 78bd ecb7 25bf
00000020: 7565 9dbd 3209 9ebd 57c7 9e3d 8dae a03d
00000030: aca5 c4be f564 c3be ab09 01bf 84d4 3cbf
00000040: 1f32 a83e 631c ac3e bd81 9d3e 3b83 e5be
00000050: dcbb 453f 2f6e c13e b09a 8abe caae 86be
00000060: 0af4 7abb 4e7c 433e 271a c1be 730f 8dbd
00000070: c827 17bf 3cce b0bd b764 afbd eeca a63c
00000080: a470 1e3e d623 cfbe 4021 b3be bbba fdbe
00000090: 8727 54bf 1bb1 d23e c9aa d63e c7a6 bf3e
000000a0: 3b4a bfbe 03d3 413f 4011 c73e 2a47 5abe
000000b0: 2f85 53be aa25 2bbc 9d30 093e 647d a8be
000000c0: b8fe acbd 31f2 0abf 323f d0bd 93d2 cfbd
000000d0: 8b32 0ebd 54a1 373e d859 b7be b1c2 bbbe
000000e0: 6af5 ebbe f430 46bf 8f6e ed3e f705 f23e
000000f0: 7438 eb3e 95e9 99be d7d0 3e3f 41fd cf3e
00000100: e332 17be e35a 12be 41f6 55bc 17f7 9b3d
00000110: c1cd 8abe 1ad6 c4bd 6672 fabe 146f e8bd
00000120: 3253 e8bd 29da bfbd 8042 4a3e 1235 93be
00000130: 0faa bcbe 420b 00bf bdb1 45bf 1f2d 0a3f
00000140: 628a 0c3f 91c2 fd3e 3b74 6bbe 6fe9 383f
00000150: 6846 d63e a48d 9bbd 7147 94bd 3ff8 bcbc
00000160: 624d 353c 5556 47be 0536 01be 9d5e d3be
00000170: c586 13be 12a4 12be e4d6 22be 05e4 473e
00000180: 6080 93be 6afc b6be 905f febe 696c 23bf
00000190: 879e 253f a05e 283f 9a25 1b3f 6689 20be
000001a0: 061a 353f 845e db3e dab3 eabb 9973 a8bb
000001b0: b401 adbc 97cf 43bd 8501 fabd 19b4 13be
000001c0: c0cc aebe 0593 26be 7786 25be 76fe 61be
000001d0: e3a3 903e 0fb8 35be 1cb3 c9be c8a0 eebe
000001e0: 1134 23bf 1fb0 353f c7fd 373f 1898 283f
000001f0: 74c9 a4bd 679c 333f 75e7 df3e c232 443d
00000200: e14a 493d 4f20 81bd 7c8d e3bd 14bf 93bd
00000210: a6b6 55be af61 8fbe 5e13 67be 1b6c 66be
00000220: ccee 8abe e32b 763e f7c9 c9bd c0d0 9cbe
00000230: 0051 fabe f291 1bbf 00ec 403f 8224 443f
00000240: ef97 3a3f 0686 d6bb e43e 2d3f d45f e63e
00000250: f495 e13d eb40 e23d 2a85 86bd 6afc 27be
00000260: 8c4f 8cbc 28fc 6cbe 6308 65be dc48 7fbe
00000270: 4cf7 7dbe 503f a9be 8e6b 793e 5059 e9bc
00000280: 19ba abbe d680 37be c899 1dbf d559 5e3f
00000290: f40b 623f b982 4c3f 95f6 7d3d eb0c 2b3f
000002a0: 8727 e83e 63f8 363e 8910 363e 8480 bcbd
000002b0: d1bc 6bbe 22f2 533d a88c 8dbe 3996 1abe
000002c0: fb84 96be 68d1 95be 3634 c9be a277 863e
000002d0: b4f9 83bc b6e6 f9be c808 f0be f756 33bf
000002e0: 697c 683f cf41 6c3f 2ead 463f 8b90 003e
000002f0: 40e5 243f 649e e63e ac35 683e 82cf 663e
00000300: df12 f9bd c19d 8dbe 40d3 d23d 4b8f 99be
00000310: c569 c8bd 4931 a2be 878e a1be 3f56 e0be
00000320: 0fbc 6f3e 4062 3b3d 4c92 b3be c703 02bf
00000330: 9978 42bf 00c0 723f db53 773f 3a35 693f
00000340: f067 403e ac64 1f3f 4836 e83e e042 923e
00000350: 23fe 903e 6ee6 17be 3040 adbe 4aaa 273e
00000360: 033f a8be f6e9 05bd 6209 b1be 8b46 b0be
00000370: 0c0c fcbe 68b7 863e 2849 9c3d 78ac a6be
00000380: 5307 05bf b574 2cbf 47b7 7d3f 5637 813f
00000390: 156b 713f d4bc 7d3e fca2 1a3f 6b33 e83e
000003a0: 27fb b13e b636 b03e a871 23be db64 c7be
000003b0: 88ca 693e f0d2 a9be 1655 d83c e18e b2be
000003c0: cdce b1be 2ed1 0cbf 4136 883e a910 0d3e
000003d0: 7292 bebe 5ef1 f3be a0ad 2cbf 8250 8c3f
000003e0: 2bfe 8e3f c08d 7e3f 0848 9e3e a688 143f
000003f0: 0ae9 e83e 3038 d03e c115 ce3e 46ea 19be

model.weight f4 [96, 96]
0.018195797 0.001093613 0.0025297687 0.0013238908 0.0038882971 0.00021161874 -0.0013272208 -0.0007015607
-0.0026764786 -0.0015172088 0.00016771354 0.0066038207 -0.0032540592 0.0010512447 -0.0015479964 0.0017856754
-0.0016898735 0.005455061 -0.004621562 -0.00030551763 -0.001667691 0.00073012535 -0.0043591163 0.00027490835
-0.0016516764 -0.00047162248 -0.0015139644 -0.0020819183 0.0029755228 -0.0015481323 -0.0057533225 0.0007185018
-0.0032414184 -0.001859801 -0.0021992559 0.0002732318 -0.0028515544 0.0030360841 -0.0029234316 -7.85102e-05
0.0011119874 -0.0023617225 -0.00046728618 -0.0034867271 -0.0019460968 -0.00044459093 0.0023289875 -0.0051160925
0.0016184233 0.0014373215 0.0010324329 -0.001434485 0.00176728 0.0017734112 -0.0024143842 0.001412893
-0.0039582876 0.003768762 -0.0038787848 0.0017191365 -0.0020896888 -0.0009835147 -0.0096377665 -0.005464421
0.006121693 0.003718961 -0.0008615244 0.0006800189 0.0025372375 0.005772639 0.0053659985 -0.00094412785
0.0058451924 0.0045030317 0.005799289 0.0046011857 -0.0062593324 0.009665818 0.0018532992 0.011918368
-0.00799526 -0.0038363696 0.0061781514 0.004671142 0.0064657307 0.012148545 0.011103459 0.0076035825
0.02528701 0.023946887 0.036386132 0.041906025 0.049061995 0.08584117 0.14088571 0.4677646
0.018920068 0.009715466 -0.00081904145 -0.00066103064 0.0008813602 0.002390656 -0.00012136618 -0.002735457
-0.003765981 -0.0034974245 -0.0037688306 0.0038434826 0.006252089 -0.0050652325 -0.0011772785 -0.0032985432
0.0006207368 4.3488748e-05 0.0014578231 -0.005603728 -0.0017254647 -0.0034314154 -0.001089939 -0.0052376576
-0.0004968559 -0.0011976906 -0.0020743562 -0.002156476 0.0012614815 0.0032985697 -0.003769262 -0.0051365467
-0.0012477231 -0.005634151 -0.0056530843 -0.0024671522 -0.00097378984 -0.00019047462 0.0031370511 -0.003253467
0.0019563828 -6.986047e-06 -0.001645501 -0.0025701723 -0.004298615 -0.00074299675 0.0014887494 -0.0006347267
-0.004412208 0.0043578646 0.0006249149 0.0012354719 0.0011939532 0.005210375 0.00038666732 -0.0034180586
0.00032094872 -0.0048174374 0.0006043826 -0.004285493 0.0025077632 -0.003400245 -0.0057178033 -0.010794135
-0.00278754 0.0069529577 0.0006658584 -0.002958488 -0.00065988884 0.0020684297 0.005464925 0.0030278012
-0.0013092206 0.0062626065 0.0044502565 0.0060361926 -0.0032967967 -0.0026594289 0.005342775 0.004853228
0.0049113305 -0.012015964 -0.0016526052 0.00598492 0.008473161 0.012145351 0.015674062 0.0167768
0.021422107 0.035209276 0.041831933 0.05356367 0.06319227 0.09191337 0.15032054 0.3595945
0.021824718 0.009506578 0.009226633 -0.0030433058 -0.00024373135 0.0021959709 0.004001589 0.0018325753
-0.002701569 -0.0011483207 -0.004088418 -0.00095623697 -0.00044733507 0.0031017459 -0.005341834 5.312716e-05
-0.0025250062 0.0021430415 -0.0021770496 0.001260866 -0.00523681 -0.0021332093 -0.0024833845 -0.0012495209
-0.0033798688 -0.00061086 -0.0020035757 -0.00084718666 0.0015675001 -0.00025872127 0.00097075297 -0.0046514957
-0.0069800685 -0.0029856418 -0.0048844586 -0.0031308653 -0.0023797855 0.0016680803 -0.001153426 0.002681266
-0.0024801898 0.0005514415 -0.0012339395 -0.0041792686 -0.0022599527 -0.0019959102 -0.00073071645 0.00015713209
-0.00050411053 -0.002030421 0.0042898194 0.002547395 0.0021396668 0.0027425892 0.0019908915 -0.0010878477
-0.004070426 0.0006427433 -0.0055678315 0.0028891822 -0.0011461804 0.0028305876 -0.0044326293 -0.003943131
00000000: 5a0f 953c 9057 8f3a 7aca 253b 6786 ad3a
00000010: cdd2 7e3b f9e5 5d39 24f6 adba f1e8 37ba
00000020: dc67 2fbb 14dd c6ba 43dc 2f39 dd64 d83b
00000030: 0e42 55bb ebc9 893a 24e6 caba 530d ea3a
00000040: bf7e ddba 5ec0 b23b 7970 97bb e22d a0b9
00000050: 6d96 daba e265 3f3a ebd6 8ebb 9321 9039
00000060: 107d d8ba 1944 f7b9 3770 c6ba cb70 08bb
00000070: fd00 433b b3ea caba 5e86 bcbb d759 3c3a
00000080: fa6d 54bb 91c4 f3ba 6421 10bb 8d40 8f39
00000090: 25e1 3abb 0af9 463b 0b97 3fbb d8a5 a4b8
000000a0: 1bc0 913a 21c7 1abb 17fe f4b9 9381 64bb
000000b0: 2c14 ffba fc17 e9b9 eda1 183b e5a4 a7bb
000000c0: 4621 d43a 8264 bc3a b352 873a 5405 bcba
000000d0: 14a4 e73a ce71 e83a a53a 1ebb d230 b93a
000000e0: 86b4 81bb 56fd 763b 3633 7ebb a654 e13a
000000f0: 29f3 08bb 47e9 80ba b9e7 1dbc e30e b3bb
00000100: 7c98 c83b d0b9 733b ecd7 61ba 4c43 323a
00000110: c847 263b 6828 bd3b 42d5 af3b 597f 77ba
00000120: 0789 bf3b 2b8e 933b f607 be3b 8bc5 963b
00000130: 161b cdbb 615d 1e3c 67ea f23a 4245 433c
00000140: 8dfe 02bc 9a6b 7bbb 1772 ca3b 6110 993b
00000150: 7bde d33b b10a 473c 48eb 353c 7927 f93b
00000160: b426 cf3c 432c c43c a009 153d a7a5 2b3d
00000170: 3bf5 483d 7fcd af3d 5844 103e d77e ef3e
00000180: 42fe 9a3c 9e2d 1f3c f1b4 56ba 0449 2dba
00000190: 150b 673a 8dac 1c3b f985 feb8 5a45 33bb
000001a0: adce 76bb 0c35 65bb 7cfe 76bb f0e2 7b3b
000001b0: 53de cc3b 40fa a5bb e94e 9aba 5f2c 58bb
000001c0: f1b8 223a b067 3638 6d14 bf3a 7a9f b7bb
000001d0: fd28 e2ba 99e1 60bb 49dc 8eba a8a0 abbb
000001e0: 6f3f 02ba d4fb 9cba ecf1 07bb aa53 0dbb
000001f0: 4c58 a53a d12c 583b b905 77bb 7a50 a8bb
00000200: a48a a3ba af9e b8bb 823d b9bb f2af 21bb
00000210: ee45 7fba 24ba 47b9 fc96 4d3b 1e38 55bb
00000220: a836 003b b069 eab6 daad d7ba 5670 28bb
00000230: 65db 8cbb abc5 42ba 2422 c33a ca63 26ba
00000240: 4994 90bb 6bcc 8e3b 54d1 233a 8fef a13a
00000250: 6c7e 9c3a cbbb aa3b 9cb9 ca39 8201 60bb
00000260: 0245 a839 98db 9dbb 6e6f 1e3a 526d 8cbb
00000270: 4959 243b a5d6 5ebb 695c bbbb e2d9 30bc
00000280: 29af 36bb a3d5 e33b 008d 2e3a 31e3 41bb
00000290: 64fc 2cba 7e8e 073b 1d13 b33b 136e 463b
000002a0: 279a abba 8d36 cd3b 75d3 913b 41cb c53b
000002b0: 120f 58bb d049 2ebb 7212 af3b d407 9f3b
000002c0: 3aef a03b 9bde 44bc 3b9c d8ba 261d c43b
000002d0: 03d3 0a3c 4bfd 463c e466 803c 806f 893c
000002e0: 6a7d af3c 9a37 103d f657 2b3d 9465 5b3d
000002f0: f36a 813d 143d bc3d a1ed 193e c51c b83e
00000300: c0c9 b23c 7ac1 1b3c 4e2b 173c 3372 47bb
00000310: 2392 7fb9 47ea 0f3b c31f 833b 0633 f03a
00000320: cf0c 31bb 4083 96ba 23f8 85bb faab 7aba
00000330: 4c88 eab9 a946 4b3b 8d0a afbb dbd4 5e38
00000340: 937a 25bb 4572 0c3b d5ac 0ebb a443 a53a
00000350: 8c99 abbb 50cd 0bbb 47c0 22bb f7c6 a3ba
00000360: ca80 5dbb 1f22 20ba 6c4e 03bb bc15 5eba
00000370: 9374 cd3a fba4 87b9 217a 7e3a 936b 98bb
00000380: 0fb9 e4bb c2aa 43bb cf0d a0bb 342f 4dbb
00000390: 2df6 1bbb 7da3 da3a 8e2e 97ba 2eb8 2f3b
000003a0: ae8a 22bb 9d8e 103a 24bc a1ba 3ff2 88bb
000003b0: b71b 14bb d1cd 02bb 8d8d 3fba d3c3 2439
000003c0: 4926 04ba d010 05bb 9d91 8c3b 32f2 263b
000003d0: a739 0c3b 03bd 333b 9e79 023b 1d96 8eba
000003e0: 3561 85bb c67d 283a 5b72 b6bb 6f58 3d3b
000003f0: 6f3b 96ba 6181 393b 973f 91bb 6135 81bb

model.bias f4 [96]
0.012361929 0.007598709 0.007999242 0.010505506 0.012671299 0.015495716 0.018844003 0.02012043
0.024560899 0.024990553 0.02797074 0.031641867 0.03299186 0.036153812 0.03945091 0.04096221
0.043217503 0.04673303 0.048369028 0.050366744 0.051785674 0.052578237 0.055543635 0.05643358
0.058035783 0.06020637 0.060830284 0.06305702 0.0633095 0.06438548 0.06507743 0.06530753
0.06746207 0.06777623 0.0681518 0.06763947 0.06741174 0.06785677 0.068606496 0.06804909
0.06739985 0.06777638 0.067836836 0.0678343 0.06868737 0.068495385 0.06874973 0.06882855
0.07030757 0.07251344 0.07262111 0.07150592 0.07258237 0.07042811 0.06606823 0.06542195
0.06382415 0.06288565 0.061644007 0.060568176 0.06000184 0.061261717 0.062782586 0.06210718
0.06124099 0.058668688 0.057552174 0.058276433 0.058118254 0.056543414 0.05334274 0.052523807
0.05180316 0.04781503 0.04838395 0.04720646 0.045363516 0.045725353 0.046624586 0.047807492
0.04642707 0.044427462 0.042911593 0.041767795 0.039216314 0.037030164 0.035273574 0.036314763
0.03329135 0.033739273 0.031912215 0.033003747 0.031415176 0.030633124 0.03015 0.026709383
00000000: b089 4a3c 97fe f83b 410f 033c 491f 2c3c
00000010: 489b 4f3c bee1 7d3c bd5e 9a3c 9ad3 a43c
00000020: f033 c93c fdb8 cc3c e522 e53c e79a 013d
00000030: 7922 073d 0516 143d 4797 213d fec7 273d
00000040: d604 313d 226b 3f3d 9a1e 463d 5c4d 4e3d
00000050: 371d 543d 475c 573d b981 633d e626 673d
00000060: eeb6 6d3d f49a 763d 2d29 793d 0a24 813d
00000070: 69a8 813d 89dc 833d 5147 853d f4bf 853d
00000080: 8e29 8a3d 44ce 8a3d 2c93 8b3d 9086 8a3d
00000090: 2b0f 8a3d 7df8 8a3d 9081 8c3d 525d 8b3d
000000a0: ef08 8a3d 58ce 8a3d 0aee 8a3d b6ec 8a3d
000000b0: f7ab 8c3d 4f47 8c3d a9cc 8c3d fcf5 8c3d
000000c0: 6afd 8f3d ed81 943d 60ba 943d b271 923d
000000d0: 11a6 943d 9d3c 903d c84e 873d f1fb 853d
000000e0: 3cb6 823d 31ca 803d 6d7e 7c3d 5616 783d
000000f0: 7dc4 753d 91ed 7a3d 2894 803d 1964 7e3d
00000100: d5d7 7a3d 944e 703d d4bb 6b3d 45b3 6e3d
00000110: 680d 6e3d 119a 673d eb7d 5a3d 3423 573d
00000120: 8d2f 543d b1d9 433d 402e 463d 905b 413d
00000130: 18cf 393d 824a 3b3d 6cf9 3e3d cad1 433d
00000140: 502a 3e3d 92f9 353d 11c4 2f3d b514 2b3d
00000150: 49a1 203d f1ac 173d 067b 103d cabe 143d
00000160: 835c 083d 3132 0a3d 62b6 023d f02e 073d
00000170: 33ad 003d 51f2 fa3c 22fd f63c a3cd da3c
