checkpoints/ETTm1_96_96_CycleNet_ETTm1_ftM_sl96_pl96_cycle96_linear_seed2024/checkpoint.pth (torch, 41833 bytes, 3 tensors)

cycleQueue.data f4 [96, 7]
0	0x3f6b9778	0.92028
1	0x3f41d904	0.75721765
2	0x3f722ae5	0.945967
3	0x3f45f235	0.77322704
4	0xbc9d7333	-0.01921997
5	0xbcb077c3	-0.021541482
6	0xbe43febf	-0.19140147
7	0x3f65c85f	0.8975887
8	0x3f2a7728	0.6658807
9	0x3f6dc1dd	0.92873937
10	0x3f359d96	0.7094358
11	0xbdef1d10	-0.11675465
12	0xbdc3007d	-0.095215775
13	0xbe5c0924	-0.21487862
14	0x3f64d0cb	0.8938109
15	0x3f349724	0.7054312
16	0x3f6fb008	0.9362798
17	0x3f40f8ff	0.7537994
18	0xbe3745a5	-0.17897661
19	0xbdd86b30	-0.105673194
20	0xbe6832bd	-0.22675605
21	0x3f595c7b	0.8490674
22	0x3f29bb73	0.6630165
23	0x3f65d5c7	0.89779323
24	0x3f37885c	0.7169244
25	0xbe5ed121	-0.21759464
26	0xbe19bcb2	-0.15013388
27	0xbe64c001	-0.22338869
28	0x3f618d4c	0.88106227
29	0x3f3e2c3e	0.7428626
30	0x3f6caf1a	0.92454684
31	0x3f438537	0.76375145
32	0xbe7a7168	-0.24457324
33	0xbe0bcb34	-0.13651735
34	0xbe807612	-0.2509008
35	0x3f5b211d	0.855974
36	0x3f25877f	0.64659876
37	0x3f696f6e	0.91185653
38	0x3f3dff2f	0.74217504
39	0xbe9b4c50	-0.3033166
40	0xbe3cb2a6	-0.18427524
41	0xbe80e889	-0.2517741
42	0x3f54ed3c	0.8317449
43	0x3f2d1cd9	0.67622143
44	0x3f6430de	0.89137065
45	0x3f3789d3	0.7169468
46	0xbea556cb	-0.3229278
47	0xbe2fc5a5	-0.17165239
48	0xbe83d7de	-0.2575063
49	0x3f4fd2ef	0.81181234
50	0x3f25f7f1	0.64831454
51	0x3f5e5eae	0.8686322
52	0x3f3b4647	0.7315411
53	0xbebd83fe	-0.37014765
54	0xbe3d4bc2	-0.1848593
55	0xbe82a02b	-0.25512823
56	0x3f4f34f7	0.8094019
57	0x3f27151e	0.652666
58	0x3f620b7a	0.8829876
59	0x3f3e50b8	0.7434192
60	0xbeca4bd7	-0.39510986
61	0xbe456199	-0.19275512
62	0xbe91d5d6	-0.28483456
63	0x3f4a1c09	0.7894903
64	0x3f20ebcf	0.62859815
65	0x3f5e0a23	0.8673422
66	0x3f35f1cb	0.7107207
67	0xbee2fda0	-0.44334126
68	0xbe881a90	-0.26582766
69	0xbea6089d	-0.32428446
70	0x3f4781d4	0.77932477
71	0x3f1ebc01	0.6200562
72	0x3f5ae2ac	0.85502124
73	0x3f36f211	0.71463114
74	0xbeecf55b	-0.4628094
75	0xbe6ea1cc	-0.23303908
76	0xbeaac93c	-0.33356655
77	0x3f3d29fb	0.7389218
78	0x3f0d080c	0.55090404
79	0x3f5478fb	0.829971
80	0x3f25d7f7	0.6478266
81	0xbef4386a	-0.4769929
82	0xbe80a957	-0.25129196
83	0xbeafab9e	-0.3431062
84	0x3f427e5f	0.75974077
85	0x3f21d645	0.63217574
86	0x3f58dea0	0.847147
87	0x3f34d68e	0.70639884
88	0xbefc8d3a	-0.49326497
89	0xbe7f1a49	-0.2491237
90	0xbeb8e625	-0.36113086
91	0x3f446d19	0.7672897
92	0x3f1d9b6b	0.61565274
93	0x3f5aa4bb	0.8540761
94	0x3f2e95f1	0.6819754
95	0xbf01fa5c	-0.50772643
96	0xbe7ed854	-0.2488721
97	0xbeb9e584	-0.3630792
98	0x3f3d4f1f	0.73948854
99	0x3f055570	0.5208349
100	0x3f54df68	0.8315339
101	0x3f1b1fa0	0.6059513
102	0xbf00877c	-0.5020673
103	0xbe7363b9	-0.2376851
104	0xbec09047	-0.37610075
105	0x3f40c7b7	0.7530474
106	0x3f0471fa	0.51736414
107	0x3f590663	0.8477537
108	0x3f20ac28	0.6276269
109	0xbf04716c	-0.5173557
110	0xbe7874f8	-0.2426337
111	0xbec74bb6	-0.3892495
112	0x3f409742	0.752308
113	0x3f07261b	0.5279252
114	0x3f55a824	0.8345969
115	0x3f13e070	0.5776434
116	0xbf019251	-0.50613886
117	0xbe1c814b	-0.15283696
118	0xbecc6467	-0.3992035
119	0x3f4219ed	0.7582081
120	0x3ef2e4d5	0.4744021
121	0x3f5756d6	0.84116876
122	0x3f0bcd93	0.54610556
123	0xbedcd984	-0.431347
124	0xbe309be4	-0.17246968
125	0xbed7f6af	-0.42180392
126	0x3f452c9b	0.7702119
127	0x3eeaf8a3	0.4589282
128	0x3f57786d	0.8416813
129	0x3efe832c	0.4970945
130	0xbeba243f	-0.3635578
131	0xbe0be120	-0.13660097
132	0xbee72272	-0.45143467
133	0x3f47e1c5	0.7807887
134	0x3ef4dede	0.47826284
135	0x3f56f764	0.8397124
136	0x3f02ec27	0.5114159
137	0xbe8cd226	-0.2750408
138	0xbe14f09c	-0.1454491
139	0xbee61941	-0.44941142
140	0x3f50fe74	0.81638265
141	0x3ecb7a1a	0.39741594
142	0x3f5b2ebb	0.8561818
143	0x3ed40723	0.41411695
144	0xbe30b9d4	-0.17258388
145	0xbdd355de	-0.10319112
146	0xbef8119c	-0.48450935
147	0x3f62f0ad	0.8864849
148	0x3ee03b91	0.43795446
149	0x3f64af62	0.8933011
150	0x3ed49769	0.41521767
151	0xbd0dbd4e	-0.034604363
152	0xbd78b04d	-0.06071501
153	0xbf022f5a	-0.508535
154	0x3f692e2a	0.91086066
155	0x3ed82f6f	0.4222369
156	0x3f673e6b	0.9032962
157	0x3ec44738	0.38335586
158	0x3dce2de9	0.100673504
159	0xbcb8c2cd	-0.022553826
160	0xbf0a886d	-0.5411442
161	0x3f6a4641	0.9151345
162	0x3eb5bc6d	0.3549532
163	0x3f645548	0.8919263
164	0x3e8bc9a7	0.27302286
165	0x3e6613d8	0.22468507
166	0x3c813da4	0.015776463
167	0xbf0a6314	-0.5405743
168	0x3f6cb9b3	0.92470855
169	0x3eaee12f	0.34156176
170	0x3f63eb75	0.89031154
171	0x3e496841	0.19668676
172	0x3ea8623f	0.32887456
173	0x3de3197a	0.11088844
174	0xbf072b56	-0.528005
175	0x3f64c469	0.893622
176	0x3e93112b	0.28724036
177	0x3f5cd5b8	0.8626361
178	0x3e38f2c4	0.18061358
179	0x3ec0aa50	0.37629938
180	0x3e21b093	0.15790014
181	0xbf0601be	-0.5234641
182	0x3f5dcea3	0.8664343
183	0x3ef3b630	0.47599936
184	0x3f51aa09	0.8190008
185	0x3e9fcbfe	0.3121032
186	0x3eeb9d1a	0.46018296
187	0x3e7cb338	0.24677742
188	0xbef9aa7f	-0.4876289
189	0x3f57d07f	0.84302515
190	0x3f055c8c	0.5209434
191	0x3f491544	0.78548074
192	0x3ebf5596	0.37369984
193	0x3f09dc24	0.5385153
194	0x3ec2d2fb	0.3805159
195	0xbeef4ab4	-0.4673668
196	0x3f44436a	0.76665366
197	0x3f1412b3	0.5784103
198	0x3f313790	0.69225407
199	0x3edad1fa	0.42738324
200	0x3f1ca16f	0.6118383
201	0x3ef9768a	0.4872325
202	0xbed329ab	-0.41242728
203	0x3f288b85	0.6583789
204	0x3f255575	0.6458352
205	0x3f15ff7b	0.5859296
206	0x3ef25f65	0.47338405
207	0x3f2d956a	0.6780611
208	0x3f262622	0.64901936
209	0xbecb4b59	-0.39705923
210	0x3f0d8712	0.55284226
211	0x3f28e689	0.6597677
212	0x3ef1e4bf	0.47244832
213	0x3f04c5ca	0.518643
214	0x3f401a6e	0.7504033
215	0x3f502456	0.81305444
216	0xbeb52e68	-0.35386968
217	0x3eda2a5b	0.4261044
218	0x3f3a2317	0.7270979
219	0x3eac7000	0.336792
220	0x3f11f01c	0.57007
221	0x3f3ed06e	0.7453679
222	0x3f6fc8f9	0.93666035
223	0xbea588cb	-0.32330927
224	0x3e28b755	0.16476186
225	0x3f071b81	0.5277634
226	0x3e1c56f4	0.15267545
227	0x3f00bab6	0.502849
228	0x3cc2e630	0.023791403
229	0x3f097cb8	0.5370593
230	0xbe92be08	-0.28660607
231	0x3bec4512	0.0072103823
232	0x3ef407f3	0.47662315
233	0x3832bf6d	4.2616786e-05
234	0x3ee02d10	0.4378438
235	0xbd6bbbd4	-0.057552174
236	0x3f0ab27b	0.5417859
237	0xbe810e74	-0.2520634
238	0xbe1b4e73	-0.15166645
239	0x3ed69065	0.4190704
240	0xbe20c632	-0.15700606
241	0x3ed66bf1	0.41879228
242	0xbd87ca0e	-0.06630336
243	0x3f15d129	0.5852228
244	0xbe6c3be0	-0.23069715
245	0xbe8dc49f	-0.27689072
246	0x3ed40d02	0.41416174
247	0xbe8f99b8	-0.28046966
248	0x3ee71e66	0.4514038
249	0xbdc83286	-0.097752616
250	0x3f1c325f	0.6101436
251	0xbe7040e2	-0.23462251
252	0xbef558e6	-0.47919387
253	0x3e690ea3	0.2275949
254	0xbefdcc13	-0.4956976
255	0x3e55446f	0.20826887

model.weight f4 [96, 96]
0	0xbcfbd052	-0.030738983
1	0x3a29cafe	0.00064770866
2	0x3c83ac7d	0.01607346
3	0x3c951058	0.01819627
4	0x3b25363f	0.0025209335
5	0xba7aa7cd	-0.00095617474
6	0x3c27012e	0.010193152
7	0xbbc94c1b	-0.0061431057
8	0xbb92a772	-0.0044755274
9	0x3b5b23d8	0.0033438113
10	0x3b8f9e14	0.004382858
11	0xb9c42d5e	-0.00037417834
12	0x3bcc63d6	0.0062374873
13	0xbbf3025b	-0.0074160523
14	0x3bc066ff	0.005871653
15	0x3b0718b9	0.00206141
16	0x3aa0a3ca	0.0012255844
17	0xbb2e710f	-0.002661768
18	0xba39985f	-0.0007079895
19	0xbb759949	-0.0037475398
20	0xbab75bda	-0.0013989166
21	0x38e0e765	0.00010724253
22	0xbb37e5ef	-0.0028060635
23	0xbb42ea80	-0.0029741824
24	0x3a1f4c5d	0.00060767477
25	0xbad41dd9	-0.0016183212
26	0x3b655ece	0.0034999135
27	0xbb9de9dc	-0.004819138
28	0xba3c8ea0	-0.00071928836
29	0xbba8a332	-0.0051464075
30	0x3b778e5e	0.0037774066
31	0xbb782bc8	-0.0037867893
32	0xbbdf4a12	-0.00681425
33	0xbc08e74b	-0.008355926
34	0xbb7f1853	-0.003892441
35	0x3c03fd90	0.0080560595
36	0x3b009a4a	0.0019623213
37	0x3bb41a3c	0.0054962914
38	0xba2533db	-0.00063019776
39	0xba0e6844	-0.0005432407
40	0xbac0bca9	-0.0014704663
41	0x3acb3f9b	0.0015506627
42	0xbb3637f8	-0.0027804356
43	0xbb59542d	-0.0033161745
44	0xbbd78600	-0.0065772533
45	0x39928b38	0.00027951016
46	0x3b62bed6	0.003459861
47	0xbacec31c	-0.00157747
48	0xbb9b7c5e	-0.0047450503
49	0xba5aab47	-0.00083415624
50	0xbb13b5eb	-0.0022538851
51	0x39e986ab	0.0004454156
52	0x3b632f1e	0.0034665535
53	0xbb94424f	-0.004524506
54	0xbb15f2a8	-0.002288023
55	0x3a53aeb4	0.0008075044
56	0xba2b3905	-0.0006531629
57	0xbbdfafb4	-0.0068263654
58	0x3af4c910	0.0018675644
59	0x3c776467	0.015099621
60	0x3c6b8741	0.014375509
61	0xbc8b90c7	-0.017036809
62	0xbc442f8b	-0.011974226
63	0x3b50619f	0.0031796468
64	0xbb6e52d5	-0.003636529
65	0xba4cb08c	-0.000780829
66	0xbbddf2dc	-0.006773336
67	0x39f3a658	0.00046472508
68	0x3a83f0d8	0.0010066284
69	0xba6012fd	-0.00085477513
70	0xbb81e7a0	-0.0039643794
71	0x3ba1af10	0.004934199
72	0x39709f37	0.00022947496
73	0xba38d276	-0.0007050404
74	0x3b73bda5	0.0037191894
75	0xbc0b14b3	-0.008488822
76	0x3b0bbfbb	0.0021323997
77	0xbbddf287	-0.0067732963
78	0xbc0ea7b7	-0.0087069785
79	0xbba57d52	-0.0050503397
80	0x399d96f9	0.00030057857
81	0x3b2b909e	0.0026178728
82	0xb9e97b5b	-0.0004453313
83	0x3a6a9d88	0.00089498656
84	0xbc7d3f6d	-0.015457016
85	0xb93f42a9	-0.00018240012
86	0x38e5de47	0.00010960973
87	0x3985cda1	0.00025520942
88	0x3b241d2a	0.0025041797
89	0xb9d3516f	-0.0004030573
90	0xbbbd785f	-0.0057821716
91	0xbc2bddce	-0.010489894
92	0x3cb7dee3	0.022445148
93	0x3dae7585	0.08518509
94	0x3e5ab984	0.21359831
95	0x3f262305	0.64897186
96	0xbd1a40bc	-0.03765939
97	0xbca84a90	-0.020543367
98	0x3c5d30a5	0.013500367
99	0x3ced51ad	0.02896961
100	0x3ca41fb2	0.020034645
101	0x3ac98bde	0.0015376767
102	0x3b7c9410	0.00385404
103	0x3b846501	0.004040361
104	0xbc22a391	-0.009926693
105	0xbb1b7834	-0.002372277
106	0x3b86ba05	0.0041115307
107	0x3b99722c	0.0046828
108	0x3b8d9ed8	0.004321914
109	0x3b2bee83	0.0026234693
110	0xbb772cc0	-0.0037715882
111	0x3bfb929a	0.0076773884
112	0x3b659b03	0.003503502
113	0xbaff2350	-0.001946548
114	0xbb509ff9	-0.0031833632
115	0xbadc6e19	-0.001681748
116	0xbb60369b	-0.0034212235
117	0xba81caa2	-0.0009902308
118	0xbacf0585	-0.0015794492
119	0xbbe00210	-0.0068361834
120	0xbb840ee1	-0.004030094
121	0xbb2c70c3	-0.0026312328
122	0x3a4587ab	0.000753517
123	0x3b10f896	0.0022120825
124	0xbb962978	-0.00458258
125	0xbb653d05	-0.0034978997
126	0xbb2a9ed9	-0.0026034622
127	0x3aa74631	0.0012762008
128	0xbc18dd95	-0.009330173
129	0xbc5053ac	-0.012715261
130	0xbc5ce66f	-0.013482674
131	0xba8b7f73	-0.0010642841
132	0x3bf47130	0.007459782
133	0x3b9210e1	0.0044575785
134	0x3b906999	0.0044071195
135	0xbacc2714	-0.0015575611
136	0x362d87d9	2.5858083e-06
137	0x3af07f35	0.0018348458
138	0x3b429131	0.0029688592
139	0xba98063f	-0.0011598541
140	0xbb9156f4	-0.0044354144
141	0xbb348783	-0.0027546592
142	0x3b78bd3a	0.0037954585
143	0x3b4e7bc5	0.0031506878
144	0xbbac123d	-0.0052511976
145	0xbbc98ca2	-0.006150798
146	0xbb80b6f9	-0.003928062
147	0xbb35e2ae	-0.002775352
148	0x3aa72800	0.001275301
149	0x3910212c	0.00013745268
150	0xbbc3a426	-0.0059704958
151	0xbad969a9	-0.0016587275
152	0x39429f74	0.00018560683
153	0xbbe46439	-0.0069699553
154	0xbbff65e9	-0.007794131
155	0x3c488aa8	0.0122400895
156	0x3cbceab7	0.02306114
157	0x3b3400ac	0.002746622
158	0xbcddd0ed	-0.027077163
159	0xbc29970e	-0.010350956
160	0x3adc23fb	0.0016795391
161	0xbb96a35e	-0.0045971116
162	0xbb799412	-0.0038082642
163	0xbbaa3e7d	-0.0051954375
164	0x3b4f6eb8	0.0031651687
165	0xba096795	-0.000524157
166	0xbb62a76e	-0.003458466
167	0x39caa1d4	0.00038649014
168	0x3ba252fe	0.004953741
169	0xb86fdb59	-5.7186324e-05
170	0x3b343488	0.0027497131
171	0xba7a7135	-0.00095536123
172	0xbbcb8ee0	-0.0062121004
173	0xbad566d0	-0.0016281251
174	0xbc4192d0	-0.011814788
175	0xbc3e5fba	-0.011619503
176	0xbb9c9c61	-0.004779384
177	0xb8de2f93	-0.00010594646
178	0x3bb6e1f7	0.0055811363
179	0x3944bd76	0.00018762596
180	0xbbde7238	-0.0067885183
181	0xbc960f86	-0.018317949
182	0xbaffb9c3	-0.0019510317
183	0xbb06d690	-0.0020574667
184	0xbb978fb6	-0.004625286
185	0x3bd8e267	0.006618786
186	0x3af50610	0.0018693823
187	0xbba890a2	-0.0051441947
188	0x3bc51b9c	0.006015254
189	0x3d9dacd1	0.07698978
190	0x3e569860	0.20956564
191	0x3f2469e5	0.6422408
192	0xbd7f91cd	-0.062394906
193	0xbc4d0caa	-0.012515226
194	0xbb2121c6	-0.002458678
195	0x3cdc4c39	0.026891815
196	0x3cf4e67d	0.029895062
197	0x3c9a5ccc	0.018843077
198	0x3ba48494	0.0050206874
199	0xbaa32962	-0.0012448246
200	0xb9a66666	-0.0003173828
201	0xbc10ce68	-0.008838274
202	0xbb56526c	-0.0032702936
203	0x3b753a1c	0.003741867
204	0x3c08d160	0.0083507
205	0xba8bf051	-0.0010676478
206	0x3bd53836	0.006506945
207	0x37c4c0a1	2.345472e-05
208	0x3c127b42	0.00894052
209	0x3a8966c9	0.0010482903
210	0xbb082a7f	-0.0020777283
211	0xbbb7cf7e	-0.005609452
212	0xbb7e205e	-0.0038776617
213	0xbb827839	-0.003981617
214	0xbaa772db	-0.0012775318
215	0xbb9cd729	-0.0047863913
216	0xbb74e209	-0.0037366173
217	0xbb52d0e1	-0.0032167959
218	0x3b85f926	0.0040885387
219	0x393690fc	0.00017410883
220	0x3b95976f	0.0045651714
221	0xbb6c5169	-0.0036059266
222	0x3ac1e403	0.0014792684
223	0xbad45efb	-0.0016202623
224	0xbb02ad84	-0.001993985
225	0xbc3da505	-0.011574988
226	0xbc6bf279	-0.014401072
227	0xbbe75fe8	-0.0070609935
228	0x3b0fc67a	0.002193837
229	0x3c67e2e0	0.014153212
230	0x3be4be2b	0.0069806776
231	0x3bc1ce5c	0.0059144925
232	0xba3f50bd	-0.0007298103
233	0x3a4d36c6	0.0007828291
234	0xb88e45ae	-6.7840665e-05
235	0xba128960	-0.00055899285
236	0xbbe74dd4	-0.0070588384
237	0xbbb2613d	-0.0054437206
238	0xbb4847ac	-0.0030560298
239	0x3b87ca6c	0.0041440036
240	0x3a9d4496	0.001199859
241	0xbb8a5e46	-0.004222664
242	0xbb709c7e	-0.003671437
243	0x386c272c	5.6303266e-05
244	0x3af0d3e3	0.0018373694
245	0x3abf5a39	0.0014599032
246	0x3a121c56	0.00055736804
247	0xbbbec86a	-0.005822231
248	0xbacb2e45	-0.001550146
249	0xbb983aa1	-0.004645661
250	0xbb9487c5	-0.0045327866
251	0x3b5ff093	0.0034170493
252	0x3cbbb8f7	0.022915347
253	0x3c6f695e	0.014612524
254	0xbb8ecc5d	-0.004357858
255	0xbcd17318	-0.025567576

model.bias f4 [96]
0	0xbc2c54e0	-0.010518283
1	0xbc948c4f	-0.01813331
2	0xbcc23505	-0.023706922
3	0xbcd8ec70	-0.02647993
4	0xbd0f54ca	-0.03499297
5	0xbd4021d1	-0.04690725
6	0xbd5abfb3	-0.053405475
7	0xbd688280	-0.05676508
8	0xbd81c0a2	-0.0633557
9	0xbd8641c5	-0.06555513
10	0xbd8c032d	-0.06836543
11	0xbd99e582	-0.07514478
12	0xbdad69a6	-0.084674165
13	0xbdafa444	-0.08576253
14	0xbdb55b0a	-0.08855255
15	0xbdc04a0f	-0.093891256
16	0xbdc97ade	-0.09837888
17	0xbdd51049	-0.10403497
18	0xbddaf241	-0.106907375
19	0xbde26bbe	-0.110557064
20	0xbde73d1f	-0.11290955
21	0xbdee1974	-0.116259485
22	0xbdef1c3d	-0.11675308
23	0xbdf2ff73	-0.11865129
24	0xbdfeeea9	-0.124478646
25	0xbe016c42	-0.12638953
26	0xbe07142e	-0.13191292
27	0xbe09ef01	-0.13470079
28	0xbe0b62e1	-0.13611938
29	0xbe0ef6ab	-0.13961284
30	0xbe105736	-0.14095768
31	0xbe12254b	-0.14272039
32	0xbe11e89a	-0.14248887
33	0xbe115fba	-0.14196673
34	0xbe126dd1	-0.14299704
35	0xbe13fbde	-0.14451548
36	0xbe16d25b	-0.14728682
37	0xbe17b88a	-0.1481649
38	0xbe15f631	-0.14644696
39	0xbe16cb9e	-0.14726111
40	0xbe18702f	-0.14886545
41	0xbe17e407	-0.1483308
42	0xbe1939a9	-0.14963402
43	0xbe1c1eca	-0.1524612
44	0xbe192402	-0.14955142
45	0xbe18b611	-0.14913203
46	0xbe16c2e7	-0.14722787
47	0xbe196b59	-0.14982356
48	0xbe1a12ae	-0.15046188
49	0xbe1bf927	-0.15231763
50	0xbe1e8c05	-0.154831
51	0xbe1fc761	-0.15603401
52	0xbe204923	-0.156529
53	0xbe1ea6cd	-0.15493317
54	0xbe1e1d04	-0.15440756
55	0xbe1f1f00	-0.1553917
56	0xbe21dbb5	-0.15806468
57	0xbe230a82	-0.15921977
58	0xbe25e152	-0.16199234
59	0xbe26da2c	-0.16294163
60	0xbe263d97	-0.16234432
61	0xbe281949	-0.16415896
62	0xbe27ceee	-0.16387531
63	0xbe250cea	-0.16118208
64	0xbe25375c	-0.16134399
65	0xbe270a75	-0.16312583
66	0xbe25c314	-0.16187698
67	0xbe20e976	-0.15714058
68	0xbe22cae8	-0.15897715
69	0xbe238b21	-0.15971042
70	0xbe20937a	-0.15681258
71	0xbe1f39f6	-0.15549454
72	0xbe1dbe89	-0.15404715
73	0xbe1d0764	-0.1533485
74	0xbe19fe8d	-0.1503851
75	0xbe149721	-0.14510776
76	0xbe1386b6	-0.14406857
77	0xbe1283c1	-0.14308073
78	0xbe0ee7a3	-0.1395555
79	0xbe0c5314	-0.13703567
80	0xbe0a5662	-0.13509515
81	0xbe04dd40	-0.12975025
82	0xbe04b284	-0.12958723
83	0xbe029802	-0.12753299
84	0xbe009ecd	-0.12560578
85	0xbdf864ce	-0.12128602
86	0xbdf4e8ed	-0.119584896
87	0xbdf3bba0	-0.11901021
88	0xbdec97e9	-0.11552412
89	0xbde955f6	-0.11393349
90	0xbde074d6	-0.10959785
91	0xbddc043c	-0.10742995
92	0xbdd5373b	-0.10410925
93	0xbdd25b8b	-0.10271367
94	0xbdc631dc	-0.09677479
95	0xbdc3579e	-0.09538196
