checkpoints/traffic_96_96_CycleNet_custom_ftM_sl96_pl96_cycle168_linear_seed2024/checkpoint.pth (torch, 618409 bytes, 3 tensors)

cycleQueue.data f4 [168, 862]
0.5220143 0.4768595 0.16431715 0.74421686 0.59952885 0.8541416 0.9083487 0.78414416
0.5967602 0.9471139 0.6177818 0.55923885 0.9460317 0.59871095 0.74577737 0.4458991
-0.09062112 0.9212142 0.5403388 0.70372486 0.62017345 1.032643 0.6437145 0.089425094
0.87555826 0.565297 0.41403 0.38392237 0.019342558 0.8805253 0.8368375 0.23442309
0.69293666 0.25547963 0.6257349 0.4792119 0.41723305 0.5433813 0.518126 0.459971
0.60518086 0.8294506 0.39021587 0.9805172 0.5466315 -0.010991116 0.89661807 0.5290418
0.39398175 0.6270867 0.7695019 0.50348455 0.7842171 0.20985438 0.5477397 0.2832048
0.7111323 0.47898644 0.8941593 0.43621612 0.6114912 0.5139739 0.36666095 0.9979339
0.6041642 0.44101995 0.83999914 1.1318195 0.5422937 -0.31749824 0.5626887 0.67884284
0.32719877 0.63536954 0.7002427 0.7740985 0.89050066 0.9124108 0.3567166 0.4811612
-0.040014315 0.82127756 0.65588325 0.38975143 0.5393993 0.27333015 0.7764765 0.5037014
0.5452081 0.5144271 0.38070834 0.527756 0.12673095 0.84019613 0.56681037 1.0113791
0.5530671 0.98244786 0.95473886 0.41804117 0.50973475 0.28268886 0.4116333 0.38432467
0.5648101 0.5794946 0.6050386 0.18963231 0.4009861 0.6064426 0.5402179 0.71098465
0.6399222 -0.3009663 0.8475406 0.38685772 0.8296475 0.4617462 0.25380248 0.4790059
0.8334328 0.6883978 0.74096525 0.75367206 0.4668213 0.6440064 0.5263745 0.030168153
0.54093283 0.5720743 0.6350324 0.8155829 0.6224257 1.0424849 0.45613357 0.78617436
0.27071896 0.5199675 0.61566824 0.88770205 0.34744442 0.859864 0.43835944 0.5122349
0.78662294 0.714422 0.8651349 0.55738765 0.4210092 0.7666016 0.4866233 0.23343311
0.5836015 0.98868006 0.7624892 0.44217005 0.95248544 -0.05028097 0.7255274 0.61374354
0.46727872 0.7982825 0.88065684 0.67785394 0.63985336 0.4054706 0.60130554 0.14988439
0.49299243 0.6779623 0.76427346 0.8345926 0.85481596 0.27724332 0.84899604 0.3623336
-0.047647767 0.5157813 0.47868976 0.35978144 0.9630494 0.4169902 0.59324175 0.3956822
0.4166208 0.4973959 0.52321774 0.9116744 0.4302663 0.5695462 0.38250375 0.25867325
0.74478734 0.35435894 0.67503273 0.60585415 0.72639084 0.64891404 0.9470611 0.4142343
0.90635747 0.8593054 0.6294469 0.91144973 0.4077324 0.2890663 0.7297482 0.50295705
0.582623 0.77970725 0.504402 0.8564276 0.5815555 0.8716521 0.5330024 0.18191361
0.5154294 0.69972986 0.037135754 0.530433 0.65164423 0.27435017 0.19433929 0.40007177
-0.04034776 0.8276244 0.29285032 0.69257283 0.6798356 0.4102628 0.6984388 0.7001886
0.47063872 0.6415967 0.8994317 0.4719261 0.7311704 -0.17316473 0.83793795 0.68343335
0.70124936 0.6089575 0.60544604 0.23149095 -0.04155267 0.43947956 0.80820817 0.58470803
0.26656896 0.78188664 0.7533335 0.29062882 0.7591237 0.9183467 0.6174095 0.5757326
00000000: bba2 053f ee26 f43e c142 283e ff84 3e3f
00000010: b97a 193f 06a9 5a3f 8a89 683f acbd 483f
00000020: 47c5 183f 0e76 723f f326 1e3f 472a 0f3f
00000030: 222f 723f 1f45 193f 44eb 3e3f e34c e43e
00000040: 9197 b9bd b2d4 6b3f a553 0a3f 5027 343f
00000050: b0c3 1e3f a52d 843f 79ca 243f 8124 b73d
00000060: 9624 603f 4eb7 103f bdfb d33e 7991 c43e
00000070: 4974 9e3c 1b6a 613f fb3a 563f 9b0c 703e
00000080: 4c64 313f 3ace 823e 2a30 203f 435b f53e
00000090: 929f d53e 091b 0b3f e8a3 043f 5281 eb3e
000000a0: 22ed 1a3f e056 543f 60ca c73e 2d03 7b3f
000000b0: 0bf0 0b3f 1514 34bc c388 653f 496f 073f
000000c0: fab7 c93e c188 203f 14fe 443f 5de4 003f
000000d0: 74c2 483f 11e4 563e ab38 0c3f 3800 913e
000000e0: c40c 363f b63d f53e a0e7 643f b857 df3e
000000f0: b08a 1c3f cb93 033f fcba bb3e 9978 7f3f
00000100: 81aa 1a3f 5ecd e13e 2f0a 573f 76df 903f
00000110: c3d3 0a3f 218f a2be 5e0c 103f a5c8 2d3f
00000120: 9986 a73e 94a7 223f 1b43 333f 522b 463f
00000130: daf7 633f c193 693f 8fa3 b63e c35a f63e
00000140: 0de6 23bd 3f3f 523f f7e7 273f 808d c73e
00000150: 1316 0a3f eef1 8b3e 2ac7 463f 93f2 003f
00000160: c292 0b3f 7fb1 033f 34ec c23e 041b 073f
00000170: c2c5 013e 1817 573f 7c1a 113f df74 813f
00000180: ce95 0d3f b481 7b3f c469 743f 7e09 d63e
00000190: fa7d 023f 98bc 903e 9ac1 d23e 34c6 c43e
000001a0: 6597 103f c259 143f cfe3 1a3f f92e 423e
000001b0: 0d4e cd3e d23f 1b3f b84b 0a3f 1703 363f
000001c0: f1d1 233f 4118 9abe 6cf8 583f 3712 c63e
000001d0: c763 543f ff69 ec3e 66f2 813e 4340 f53e
000001e0: da5b 553f d73a 303f e6af 3d3f a7f0 403f
000001f0: 3403 ef3e 9add 243f 7bc0 063f 3423 f73c
00000200: 937a 0a3f 7673 123f 7c91 223f 0aca 503f
00000210: 4a57 1f3f 2570 853f 578a e93e b942 493f
00000220: ad9b 8a3e 971c 053f 6f9c 1d3f 7140 633f
00000230: 3ce4 b13e 0c20 5c3f a670 e03e d421 033f
00000240: 1f60 493f 5ce4 363f 7b79 5d3f f5b0 0e3f
00000250: 858e d73e 0140 443f b026 f93e 1709 6f3e
00000260: e866 153f 231a 7d3f 7e32 433f 1d64 e23e
00000270: 16d6 733f 6bf3 4dbd 2abc 393f 4c1e 1d3f
00000280: 283f ef3e 3e5c 4c3f ba72 613f d687 2d3f
00000290: 6ecd 233f d899 cf3e 29ef 193f 4b7b 193e
000002a0: 8169 fc3e f08e 2d3f 6da7 433f dca7 553f
000002b0: 38d5 5a3f d6f2 8d3e ce57 593f ca83 b93e
000002c0: 4e2a 43bd 3e0a 043f d316 f53e 4635 b83e
000002d0: 688a 763f bd7f d53e b1de 173f db96 ca3e
000002e0: 524f d53e adaa fe3e 99f1 053f 7e63 693f
000002f0: dd4b dc3e c8cd 113f 88d7 c33e d270 843e
00000300: 62aa 3e3f 896e b53e f2ce 2c3f 4219 1b3f
00000310: c0f4 393f 3b1f 263f 9972 723f 8516 d43e
00000320: 0b07 683f 70fb 5b3f 6f23 213f c554 693f
00000330: 4dc2 d03e 8000 943e c7d0 3a3f cbc1 003f
00000340: c826 153f e59a 473f 7d20 013f d73e 5b3f
00000350: d2e0 143f 9824 5f3f d872 083f 9047 3a3e
00000360: 2ef3 033f 7f21 333f a91b 183d 75ca 073f
00000370: 28d2 263f a077 8c3e e100 473e 35d6 cc3e
00000380: b143 25bd 31df 533f 7af0 953e 744c 313f
00000390: b509 2e3f f70d d23e e3cc 323f 8f3f 333f
000003a0: 8ff7 f03e ae3f 243f 2841 663f 4ca0 f13e
000003b0: fc2d 3b3f 1852 31be 1a83 563f 7df5 2e3f
000003c0: 1485 333f a4e4 1b3f 83fe 1a3f f70b 6d3e
000003d0: 2233 2abd 7703 e13e bbe6 4e3f 6daf 153f
000003e0: ba7b 883e b929 483f 77da 403f 4dcd 943e
000003f0: ee55 423f c518 6b3f 8d0e 1e3f 3663 133f

model.weight f4 [96, 96]
0.03827868 0.015978755 -0.0052430755 -2.0506362e-05 -0.0056996327 -0.0077696717 -0.011677489 -0.012668482
-0.015615212 -0.011507469 -0.0075912024 -0.012203239 -0.01019644 -0.014938262 -0.012291144 -0.01147415
-0.016418528 -0.016446084 -0.020662226 -0.015222995 -0.018412655 -0.013626632 -0.011035025 -0.033847537
0.05167178 0.009946854 -0.001194893 -0.0013432966 -0.0068141073 -0.005996689 -0.011821702 -0.010999924
-0.01352118 -0.010507353 -0.0083213225 -0.010397676 -0.00936242 -0.01234015 -0.009113064 -0.008347237
-0.013477713 -0.0146431085 -0.015696073 -0.013867548 -0.013065274 -0.0073707537 -0.0054572904 -0.054152586
0.081522994 0.01796777 -0.0031982346 0.0010604219 -0.00451313 -0.0021299215 -0.005498955 -0.0060007675
-0.008305854 -0.004637575 -0.0022848821 -0.007456432 -0.0049318983 -0.00836111 -0.00065337203 0.0009424833
-0.008846024 -0.00817278 -0.0128297405 -0.009798508 -0.011175532 -0.008203567 -0.01553673 -0.09365326
0.18144625 0.0674081 0.012369023 0.012519517 0.0056052995 0.0046757795 0.00020857391 0.001097538
-0.0074873697 0.0013078236 0.010876582 -0.0017745182 0.0026855047 -0.003662746 0.010968341 0.020790732
0.007054261 0.006668975 0.003275686 0.009231187 -1.2614347e-05 0.045416027 -0.08702569 0.6728328
-0.008717366 0.068680584 0.00902617 -0.0037771885 -0.0042144433 -0.010768783 -0.015879672 -0.020432936
-0.023474883 -0.02324592 -0.016382894 -0.016113702 -0.019046597 -0.020681087 -0.02304616 -0.020261765
-0.023029769 -0.027780691 -0.030618826 -0.030987592 -0.027518196 -0.027356599 -0.020535158 -0.032279305
0.007201518 0.055236444 0.009493734 -0.0021803868 -0.005917374 -0.011134781 -0.014334125 -0.019654553
-0.020590404 -0.020735256 -0.016260274 -0.015427997 -0.017049516 -0.017597912 -0.018543156 -0.014818115
-0.017688345 -0.02370124 -0.0255206 -0.025106426 -0.022742968 -0.017948013 -0.010981135 -0.041506827
0.0032665327 0.09286651 0.015443452 -0.0022838726 -0.0023055603 -0.0063426914 -0.006352817 -0.010066303
-0.01222061 -0.01188352 -0.0066099297 -0.007568533 -0.011349918 -0.010825874 -0.009314283 -0.0005501107
-0.005676626 -0.014959432 -0.01749713 -0.01979919 -0.017742435 -0.01697199 -0.019567192 -0.079249896
0.030921603 0.22654624 0.076583095 0.02024329 0.015967645 0.008009573 0.0038313507 -0.000110941044
-0.0050934884 -0.007756962 0.008182612 0.008731389 -0.00044418592 -0.0008939462 0.0030894277 0.024265883
0.024536656 0.010633873 0.008085881 0.008729932 0.008567212 0.02986045 -0.014915731 0.36867362
-0.02900852 0.018938605 0.06258255 0.010459867 -0.0067981766 -0.0072092214 -0.015822507 -0.021237087
-0.026981134 -0.027861781 -0.026169946 -0.021573441 -0.02025791 -0.025336554 -0.025283763 -0.027772881
-0.027148902 -0.029628757 -0.03588533 -0.036350932 -0.037751157 -0.032212175 -0.030990934 -0.031057857
-0.006285655 0.0074002296 0.054875176 0.008365414 -0.0047299988 -0.008616246 -0.016058536 -0.019013545
-0.025277825 -0.024751114 -0.02403724 -0.020430114 -0.019413052 -0.021795856 -0.0213743 -0.02182935
-0.020166196 -0.02344919 -0.029781183 -0.030651694 -0.02985695 -0.025241561 -0.019775141 -0.030234566
-0.008049949 0.009058381 0.09134107 0.016103467 -0.004407306 -0.0035120316 -0.008977757 -0.009213717
-0.013933614 -0.014530681 -0.013226497 -0.009841852 -0.010081739 -0.014807866 -0.011764815 -0.009588555
00000000: 1bca 1c3d e1e5 823c 1bce abbb 1405 acb7
00000010: fcc3 babb bb98 febb f052 3fbc 778f 4fbc
00000020: f2d6 7fbc d389 3cbc 9fbf f8bb 18f0 47bc
00000030: f80e 27bc 9dbf 74bc cb60 49bc 13fe 3bbc
00000040: 2680 86bc f0b9 86bc d443 a9bc de69 79bc
00000050: 23d6 96bc 3d42 5fbc 40cc 34bc b7a3 0abd
00000060: caa5 533d 21f8 223c f59d 9cba 8e11 b0ba
00000070: e048 dfbb e07f c4bb d0af 41bc 0639 34bc
00000080: f087 5dbc 0827 2cbc 2856 08bc 045b 2abc
00000090: d664 19bc 572e 4abc f64e 15bc d9c2 08bc
000000a0: a0d1 5cbc a6e9 6fbc 0d95 80bc b634 63bc
000000b0: bb0f 56bc 5d86 f1bb 12d3 b2bb 1acf 5dbd
000000c0: 87f5 a63d 2531 933c 7999 51bb dbfd 8a3a
000000d0: e1e2 93bb 2796 0bbb 9430 b4bb 16a2 c4bb
000000e0: 4715 08bc ccf6 97bb f6bd 15bb 1655 f4bb
000000f0: c39b a1bb 0afd 08bc 0e47 2bba fc10 773a
00000100: eaee 10bc 20e7 05bc d533 52bc ec89 20bc
00000110: 9419 37bc 4168 06bc c58d 7ebc 48cd bfbd
00000120: 0ccd 393e 420d 8a3d 71a7 4a3c a91e 4d3c
00000130: a9ac b73b 4837 993b a2b4 5a39 44db 8f3a
00000140: 9c58 f5bb 476b ab3a b133 323c f396 e8ba
00000150: 4bff 2f3b ae0a 70bb 8eb4 333c 5351 aa3c
00000160: 6e27 e73b 6b87 da3b e4ac 563b 683e 173c
00000170: 35a2 53b7 2806 3a3d 863a b2bd c53e 2c3f
00000180: 48d3 0ebc 68a8 8c3d 80e2 133c b58a 77bb
00000190: 5019 8abb 8d6f 30bc 1616 82bc f962 a7bc
000001a0: 664e c0bc 3a6e bebc 6b35 86bc e200 84bc
000001b0: 9c07 9cbc 626b a9bc 4dcb bcbc 00fc a5bc
000001c0: eda8 bcbc 5594 e3bc 55d4 fabc b1d9 fdbc
000001d0: d76d e1bc f21a e0bc 5939 a8bc 4e37 04bd
000001e0: b6fa eb3b 9c3f 623d 9b8b 1b3c d2e4 0ebb
000001f0: 88e6 c1bb a86e 36bc aed9 6abc 9602 a1bc
00000200: 35ad a8bc fcdc a9bc 4434 85bc b6c5 7cbc
00000210: 6dab 8bbc 7f29 90bc d1e7 97bc aec7 72bc
00000220: 26e7 90bc 1a29 c2bc 9410 d1bc feab cdbc
00000230: 764f babc b607 93bc 38ea 33bc 1003 2abd
00000240: 5313 563b cc30 be3d 8806 7d3c 06ad 15bb
00000250: e218 17bb 5ad6 cfbb 4b2b d0bb 23ed 24bc
00000260: f438 48bc 18b3 42bc 1c98 d8bb 7501 f8bb
00000270: 02f5 39bc 025f 31bc ef9a 18bc 4e35 10ba
00000280: fe02 babb 6818 75bc 2456 8fbc e931 a2bc
00000290: 9558 91bc d808 8bbc 604b a0bc c54d a2bd
000002a0: 4d4f fd3c bdfb 673e 99d7 9c3d 42d5 a53c
000002b0: 94ce 823c 963a 033c 6617 7b3b 05a9 e8b8
000002c0: 47e7 a6bb 1d2e febb 5d10 063c 1a0e 0f3c
000002d0: a0e1 e8b9 b757 6aba ff77 4a3b 3fc9 c63c
000002e0: 1901 c93c b239 2e3c a57a 043c fd07 0f3c
000002f0: 7e5d 0c3c e79d f43c 1c61 74bc cac2 bc3e
00000300: 47a3 edbc 2225 9b3c 482b 803d dd5f 2b3c
00000310: 3dc3 debb 553b ecbb 349e 81bc 66f9 adbc
00000320: 8a07 ddbc 643e e4bc 5b62 d6bc c9ba b0bc
00000330: ebf3 a5bc 9b8e cfbc e51f cfbc f483 e3bc
00000340: 6067 debc 02b8 f2bc 7ffc 12bd b7e4 14bd
00000350: f5a0 1abd eaf0 03bd b3e0 fdbc 0c6d febc
00000360: e5f7 cdbb a07d f23b cbc4 603d 170f 093c
00000370: 1bfe 9abb 282b 0dbc 318d 83bc 4bc2 9bbc
00000380: 7113 cfbc d9c2 cabc bfe9 c4bc 0e5d a7bc
00000390: 1f08 9fbc 398d b2bc 2819 afbc 77d3 b2bc
000003a0: 9433 a5bc 8418 c0bc abf7 f3bc 4319 fbbc
000003b0: 9096 f4bc 64c7 cebc 7aff a1bc 7bae f7bc
000003c0: efe3 03bc 9b69 143c 0711 bb3d 6beb 833c
000003d0: 2a6b 90bb 1d2a 66bb 7117 13bc 21f5 16bc
000003e0: d049 64bc 1812 6ebc f3b3 58bc b83f 21bc
000003f0: e12d 25bc b19c 72bc 36c1 40bc 5119 1dbc

model.bias f4 [96]
0.018423503 0.033265725 0.042867336 0.050054 0.0555764 0.06053552 0.065034 0.06915381
0.07308156 0.07673456 0.08034375 0.08329736 0.08594255 0.088004604 0.090022355 0.092196144
0.09405897 0.095703386 0.0968789 0.09738933 0.0975398 0.09784565 0.098310724 0.09951214
0.10374271 0.109305814 0.11377622 0.117430925 0.12061273 0.12336083 0.12572703 0.12774387
0.12943637 0.13080113 0.13199888 0.13300262 0.13340235 0.13324064 0.13281913 0.13255593
0.13206515 0.1312934 0.13020362 0.12853429 0.12657565 0.124143384 0.120671 0.11604112
0.11243338 0.11243552 0.11321423 0.114013866 0.114775136 0.11516571 0.115132645 0.11449898
0.113532804 0.112276636 0.111014575 0.10966071 0.10778822 0.10539465 0.1025431 0.09981788
0.09697652 0.09408855 0.09069311 0.087049514 0.082986735 0.07815426 0.071851656 0.06324546
0.054688923 0.051605307 0.050140608 0.049130794 0.0479928 0.04670869 0.044808142 0.042678498
0.040253296 0.03763072 0.03507583 0.032518093 0.03004447 0.027363844 0.024232605 0.021112466
0.017842768 0.014500561 0.010931155 0.007141605 0.0032958104 -0.0010287915 -0.006116634 -0.012367315
00000000: e3ec 963c a441 083d a995 2f3d 6c05 4d3d
00000010: 14a4 633d 18f4 773d 8c30 853d 83a0 8d3d
00000020: c9ab 953d 0227 9d3d 448b a43d ce97 aa3d
00000030: a602 b03d c23b b43d a45d b83d 55d1 bc3d
00000040: fda1 c03d 2300 c43d 7268 c63d 0f74 c73d
00000050: f2c2 c73d 4d63 c83d 2257 c93d 05cd cb3d
00000060: 0f77 d43d badb df3d 8203 e93d a07f f03d
00000070: cf03 f73d 9aa4 fc3d 96be 003e 4acf 023e
00000080: f88a 043e bbf0 053e b72a 073e d731 083e
00000090: a09a 083e 3c70 083e bd01 083e bebc 073e
000000a0: 163c 073e c771 063e 1954 053e 7e9e 033e
000000b0: 0c9d 013e e33e fe3d 5b22 f73d f7a6 ed3d
000000c0: 7943 e63d 9844 e63d dddc e73d 1a80 e93d
000000d0: 3a0f eb3d 00dc eb3d aaca eb3d 717e ea3d
000000e0: e383 e83d 4bf1 e53d 9c5b e33d cb95 e03d
000000f0: 12c0 dc3d 26d9 d73d 1e02 d23d 516d cc3d
00000100: a09b c63d 7fb1 c03d 4fbd b93d 0447 b23d
00000110: f3f4 a93d 570f a03d f626 933d d686 813d
00000120: 7e01 603d 1660 533d 3d60 4d3d 5f3d 493d
00000130: 1994 443d 9c51 3f3d be88 373d a6cf 2e3d
00000140: a4e0 243d ab22 1a3d acab 0f3d b131 053d
00000150: d21f f63c 242a e03c 7583 c63c 0df4 ac3c
00000160: ff2a 923c c393 6d3c 9618 333c 2004 ea3b
00000170: 86fe 573b 84d8 86ba 0b6e c8bb 47a0 4abc
